trained_scorer/CiteSeer_epagcl_gcn_scorer_model_100_epochs_s4_ex8.pt (torch, 342084 bytes, 5 tensors)

net.0.weight f4 [64, 1287]
0.004405848 0.029156392 -0.037443057 0.03705008 -0.0027759152 -0.0041758297 -0.021447757 0.018235158
0.03559108 -0.020974485 0.053628296 -0.0073465277 0.036019597 0.014538579 0.018767292 -0.0049164346
0.023302874 -0.0087276455 0.0041652555 -8.125627e-06 -0.0172878 -0.02951768 0.0028537945 0.012504537
-0.0074655632 -0.0033239073 -0.0061372505 -0.015224813 0.014511787 -0.013935816 0.01988282 -0.028723385
0.005599408 -0.03445448 -0.010257689 -0.02513985 -0.02396756 0.044916146 -0.025457805 -0.008352927
0.005481466 -0.009176255 0.007470972 0.028204381 -0.030068537 -0.0144905215 0.017320517 0.0146530615
-0.0037362573 -0.05728106 -0.019408794 -0.03499791 -0.037420716 -0.007813009 -0.008057876 0.008852867
0.004741682 0.011121912 0.0196084 -0.019877208 -0.0141287 -0.045212533 0.012076754 -0.024851646
-0.006894828 -0.017301038 0.030930698 0.022703528 -0.03352635 -0.022019805 0.040379114 -0.0117964605
0.01350686 -0.03581663 -0.02604773 -0.046463415 -0.04188379 0.010305909 0.0077273394 0.04645715
-0.035729174 -0.03598917 0.001526015 -0.028454639 0.013465999 -0.018846303 -0.020786675 -0.002127876
-0.007505377 -0.0021242597 0.0043140324 0.0009962864 0.0086733 0.013230766 -0.028431099 0.002280169
0.008496598 0.016999973 -0.017636472 -0.03559661 -0.02265164 0.0075065787 0.005462206 -0.05109269
-0.02006261 -0.006916022 -0.014427922 -0.027824152 -0.0010222548 -0.030292489 0.03237478 0.0043384973
0.062785275 -0.03637857 -0.01463931 -0.016440623 0.004032679 -0.045075 -0.015149962 -0.0441232
-0.028670348 -0.0007627474 -0.006536763 -0.040265176 -0.016962094 -0.036079124 -0.030573944 -0.006650638
0.020174092 -0.013987321 0.013421831 0.038989212 -0.0561167 0.020786257 0.0018292039 -0.009612504
-0.03915439 -0.027565459 0.026067186 -0.0058449022 -0.031257674 -0.04290816 0.0068904394 -0.040283512
0.017458575 -0.022561315 0.029947199 -0.0063850535 0.016538179 -0.025357896 -0.0040577007 -0.0051353374
-0.010915612 -0.019804895 0.012397029 -0.019167395 0.021627722 0.02539034 0.011702074 -0.0539751
-0.008978618 0.0016645768 0.00852748 -0.025542738 -0.016703848 -0.0058259885 -0.035176035 0.017685127
0.008495439 0.002784363 0.0065615415 0.017127117 -0.01677926 0.019237986 -0.044053715 0.004763919
0.011133705 -0.022773242 0.035128 -0.028354572 -0.005492405 0.02043757 -0.0037124283 -0.009801941
0.024713919 -0.016500372 -0.026251087 -0.008172504 -2.2041706e-05 0.015241091 -0.026192382 0.01168809
0.012662793 0.009238234 0.0018882948 -0.017340435 0.016183008 0.01851179 0.011726878 -0.0083415
-0.040418822 -0.0150207635 0.015257334 0.011195765 -0.038054872 -0.047981802 -0.0058936197 -0.02013199
-0.024918497 -0.016023675 -0.008386413 -0.015352621 -0.045897037 -0.046528872 -0.029545752 0.035843432
-0.0056540896 -0.027508702 -0.0055850088 -0.011701054 -0.040798854 0.053724594 -0.032074895 -0.002628256
-0.009856768 0.004802077 -0.011254742 0.01549485 0.005846329 -0.053368665 -0.006311993 0.00385718
0.0013822444 -5.68089e-05 -0.01508386 0.007951684 0.0023530652 -0.024177477 -0.017478457 -0.04730098
0.005000343 0.017340573 -0.0038016716 -0.04128906 -0.01316174 -0.0030447422 -0.015939794 -0.01974526
-0.0126082525 -0.00034572097 -0.025297647 -0.034242645 -0.034073 -0.043865915 0.015883066 0.0041333954
00000000: ef5e 903b 63d9 ee3c e45d 19bd d3c1 173d
00000010: 21ec 35bb 66d5 88bb 35b3 afbc e661 953c
00000020: f4c7 113d afd2 abbc 58a9 5b3d 24bb f0bb
00000030: 4989 133d 3833 6e3c ddbd 993c 0b1a a1bb
00000040: abe5 be3c 66fe 0ebc b27c 883b 4d53 08b7
00000050: 259f 8dbc 10cf f1bc ba06 3b3b d4df 4c3c
00000060: afa1 f4bb e9d5 59bb fd1a c9bb 7e71 79bc
00000070: d9c2 6d3c 0c53 64bc 4ce1 a23c 4e4d ebbc
00000080: 3d7b b73b 2420 0dbd de0f 28bc 16f2 cdbc
00000090: 9e57 c4bc fef9 373d e38c d0bc b7da 08bc
000000a0: df9d b33b 0158 16bc 0ecf f43b e00c e73c
000000b0: 4b52 f6bc a769 6dbc c2e3 8d3c 6513 703c
000000c0: ffdb 74bb 8b9f 6abd 31ff 9ebc f859 0fbd
000000d0: 7746 19bd 2302 00bc 2e05 04bc 9e0b 113c
000000e0: 1d60 9b3b ae38 363c cca1 a03c 87d5 a2bc
000000f0: 107c 67bc c730 39bd 94dd 453c ae95 cbbc
00000100: 02ee e1bb e8ba 8dbc 6062 fd3c c0fc b93c
00000110: ed52 09bd e162 b4bc 9264 253d f145 41bc
00000120: e04b 5d3c 75b4 12bd 0d62 d5bc 6c50 3ebd
00000130: 568e 2bbd 1eda 283c 9f35 fd3b da49 3e3d
00000140: c158 12bd 6169 13bd 9104 c83a b419 e9bc
00000150: 7ea0 5c3c 9063 9abc d148 aabc d673 0bbb
00000160: aaef f5bb 2a37 0bbb ba5c 8d3b d395 823a
00000170: 751a 0e3c dbc5 583c 56e8 e8bc e36e 153b
00000180: 5135 0b3c 8743 8b3c 5d7a 90bc c0cd 11bd
00000190: ef8f b9bc bff9 f53b 4efc b23b 9246 51bd
000001a0: 585a a4bc cc9f e2bb 1763 6cbc 7aef e3bc
000001b0: 2efd 85ba f427 f8bc 6b9b 043d f429 8e3b
000001c0: 9195 803d b201 15bd b7d9 6fbc 7cae 86bc
000001d0: 9024 843b 90a0 38bd 8c37 78bc 87ba 34bd
000001e0: 14de eabc 1df3 47ba 5832 d6bb 19ed 24bd
000001f0: 17f4 8abc b4c7 13bd 3576 fabc 98ed d9bb
00000200: 2344 a53c 142b 65bc 3de7 5b3c 27b3 1f3d
00000210: a0da 65bd f147 aa3c e6c1 ef3a c47d 1dbc
00000220: 5b60 20bd f5d0 e1bc da8a d53c 9886 bfbb
00000230: 0c08 00bd 77c0 2fbd 32c9 e13b 5300 25bd
00000240: 4905 8f3c 82d2 b8bc d453 f53c b639 d1bb
00000250: 137b 873c 5dbb cfbc 76f6 84bb 5546 a8bb
00000260: 65d7 32bc e03d a2bc e91c 4b3c f104 9dbc
00000270: 9f2c b13c 67ff cf3c 0eba 3f3c ff14 5dbd
00000280: 0e1b 13bc ee2d da3a d8b6 0b3c 013f d1bc
00000290: 82d6 88bc efe7 bebb bf14 10bd 66e0 903c
000002a0: 7430 0b3c dc79 363b 3302 d73b 2b4e 8c3c
000002b0: a974 89bc fb98 9d3c ab71 34bd a61a 9c3b
000002c0: 256a 363c f38e babc 61e2 0f3d d947 e8bc
000002d0: a2f9 b3bb b16c a73c 364c 73bb 5298 20bc
000002e0: d874 ca3c ca2b 87bc 850c d7bc f7e5 05bc
000002f0: 34e6 b8b7 c5b5 793c 6891 d6bc 677f 3f3c
00000300: 9a77 4f3c f65b 173c a980 f73a 870d 8ebc
00000310: 3a92 843c 0aa6 973c 1722 403c c9aa 08bc
00000320: 358e 25bd a619 76bc e6f9 793c 716e 373c
00000330: 6ddf 1bbd 9188 44bd 441f c1bb d8eb a4bc
00000340: e021 ccbc 1544 83bc 2a67 09bc 8f89 7bbc
00000350: 88fe 3bbd 0f95 3ebd ef09 f2bc 90d0 123d
00000360: f145 b9bb ee59 e1bc 7302 b7bb c7b5 3fbc
00000370: b31c 27bd 520e 5c3d f760 03bd d23e 2cbb
00000380: 487e 21bc be5a 9d3b cf65 38bc 1dde 7d3c
00000390: 9092 bf3b 1a99 5abd d6d4 cebb bec8 7c3b
000003a0: 6d2c b53a 1846 6eb8 4b22 77bc c847 023c
000003b0: e235 1a3b d80f c6bc fb2e 8fbc acbe 41bd
000003c0: ebd9 a33b d10d 8e3c 7725 79bb b81e 29bd
000003d0: 57a4 57bc 4c8a 47bb 2c94 82bc d0c0 a1bc
000003e0: d892 4ebc e241 b5b9 033d cfbc 0442 0cbd
000003f0: 2190 0bbd bfac 33bd 341d 823c 6f71 873b

net.0.bias f4 [64]
0.041997094 0.02097766 0.021576723 -0.016358977 0.007328018 0.026123444 0.021910725 0.040305406
0.067692444 0.007984674 -0.0065536085 -0.0059034033 0.036397226 -0.00077091914 0.049366098 0.009873667
0.037719652 -0.024404233 0.043800373 0.056822397 -0.03985847 0.0222535 -0.00295231 -0.004231686
-0.00491551 -0.027089836 0.012602846 0.061339512 -0.01269618 0.040944334 0.012499416 0.01372673
0.016970072 0.054983296 0.0047299713 -0.026200652 -0.0022870763 0.043763172 -0.026826411 0.042917132
0.0668195 -0.027210677 -0.006843246 0.008526139 0.05244732 -0.0038063005 0.037027195 0.023333432
-0.010795875 0.045400113 0.011050426 -0.020691734 0.025080504 0.035663005 0.036253087 -0.00900237
0.008398058 0.021093488 0.0571834 -0.026109181 0.03318629 -0.0026606568 0.0058680787 0.022862758
00000000: 2505 2c3d 57d9 ab3c abc1 b03c 4303 86bc
00000010: df1f f03b d500 d63c 1f7e b33c 4817 253d
00000020: 56a2 8a3d 26d2 023c a7bf d6bb 5671 c1bb
00000030: 4215 153d 8217 4aba 1b34 4a3d 29c5 213c
00000040: ec7f 1a3d 63eb c7bc 0568 333d 9abe 683d
00000050: a342 23bd f94c b63c 8b7b 41bb f4a9 8abb
00000060: 4912 a1bb 81eb ddbc 2b7c 4e3c 243f 7b3d
00000070: a303 50bc 3fb5 273d 5aca 4c3c 14e6 603c
00000080: d204 8b3c 2a36 613d e0fd 9a3b c0a2 d6bc
00000090: c6e2 15bb 0341 333d 10c3 dbbc e0c9 2f3d
000000a0: a9d8 883d ede8 debc 4f3d e0bb 38b1 0b3c
000000b0: 00d3 563d 2073 79bb d4a9 173d c125 bf3c
000000c0: 2fe1 30bc 78f5 393d d90c 353c b681 a9bc
000000d0: a175 cd3c 5f13 123d 1e7e 143d ad7e 13bc
000000e0: 0298 093c 40cc ac3c 2439 6a3d ece2 d5bc
000000f0: 59ee 073d 6a5e 2ebb 0349 c03b ae4a bb3c

net.3.weight f4 [32, 64]
-0.04756835 0.12717871 -0.034661572 -0.14505471 0.06467818 0.115753345 -0.048074316 0.18498477
0.20045263 0.04438747 0.068315506 0.019363172 0.042407025 -0.08126788 0.10312834 -0.00453196
-0.022858292 -0.06436597 0.19710821 0.12700179 -0.085688196 -0.12664811 -0.097036466 0.0369594
0.041356973 -0.049567588 -0.0835048 -0.041466027 0.040271595 -0.102209456 -0.015638996 -0.002495879
0.20684192 0.0041476004 0.009207313 -0.12376111 -0.012209744 -0.037943944 0.06508482 0.114937164
0.17479941 -0.11919177 0.047412496 -0.16528824 0.038339093 -0.14358343 0.011418684 0.19323368
-0.15901372 0.19657177 0.05583158 -0.024224479 0.05491495 -0.018493854 0.096239045 -0.08699705
-0.037678704 0.06978369 0.06569521 -0.08061884 -1.1286577e-05 -0.11934654 -0.06437368 0.20191763
-0.07514426 0.15866232 -0.02783944 -0.13422593 0.18034837 0.10623306 0.022589883 0.0069167046
0.12453405 -0.012615711 0.061781082 0.12519442 0.14060545 -0.14213721 0.15458652 -0.10493778
0.0041325237 -0.039462432 -0.043095946 0.13381158 0.08979882 -0.16863403 -0.08583758 -0.16067876
0.058847368 -0.09963904 -0.11923027 0.13996 0.002216106 -0.10271412 0.08508821 -0.0468966
0.19378564 0.14155342 -0.07432399 -0.11435253 -0.02585976 0.028966848 0.00096010324 0.10842218
0.076819696 -0.08625943 -0.12348662 -0.13191423 0.089824036 -0.090110585 0.10001966 0.17007436
-0.16069856 0.12655064 -0.11954985 0.10161151 -0.020944173 0.14856717 0.09495793 0.056812216
-0.12219578 -0.005915697 0.15841249 0.024529545 0.15743837 -0.035664916 -0.10938313 0.18030865
-0.14264956 0.15443687 -0.023972891 0.03197428 0.05614657 0.07862936 0.06832184 0.17946634
0.1837497 -0.049119525 -0.1395652 0.017221423 -0.0055798194 -0.06376567 0.039325196 0.08064603
0.06583581 -0.042008683 0.15787384 0.21514899 0.01138267 -0.06032234 -0.0037437365 -0.08186514
-0.13323037 -0.06331256 -0.007115137 0.04520881 0.025433224 -0.07183402 -0.09222028 0.0110595925
0.018840233 0.0047323974 0.055493195 -0.014525339 -0.11112468 -0.022818824 -0.047917143 0.13709341
0.18512204 0.08313479 -0.04999326 0.037135806 0.063192196 -0.09946027 0.16847353 0.107015006
-0.07880826 0.040068742 -0.0543755 0.095933415 0.06159482 0.026853966 0.082759954 -0.047260586
-0.07037233 0.08487321 0.13993676 0.07536522 0.1132167 -0.09605733 -0.037148863 -0.02275807
0.042581573 -0.004004708 0.023242401 0.017998492 -0.04645162 -0.059821434 0.07505986 0.04467384
-0.12026814 -0.08884721 0.050388046 0.11944607 -0.12577069 0.07803791 -0.14769407 0.017107747
-0.022492325 0.018249672 -0.094980136 -0.09433865 0.08316378 -0.033499364 0.08606049 0.12312154
0.10642498 -0.081436574 0.04277021 -0.069326326 0.1053454 0.04403298 -0.0057753962 0.039422788
0.029584173 0.009041885 0.1377566 0.040599104 -0.16584109 0.016425908 -0.07444234 0.007080472
-0.054426327 0.07211343 -0.04882516 -0.060068276 0.025287129 0.09966608 0.09395751 -0.06460998
0.103091024 0.039742988 -0.010750255 0.061115935 -0.03408095 0.025308441 0.15072471 -0.0993982
0.050673224 0.025464589 -0.12920891 0.04341983 -0.09295747 0.07408449 0.15816179 -0.15558118
00000000: 08d7 42bd 233b 023e 4bf9 0dbd 3989 14be
00000010: fe75 843d 1710 ed3d 93e9 44bd a66c 3d3e
00000020: 7443 4d3e a3cf 353d 00e9 8b3d 849f 9e3c
00000030: fdb2 2d3d c66f a6bd f334 d33d d680 94bb
00000040: 5041 bbbc 4ed2 83bd bcd6 493e c20c 023e
00000050: 4b7d afbd 0bb0 01be 0ebb c6bd bd62 173d
00000060: ee65 293d 6207 4bbd 9104 abbd 48d8 29bd
00000070: d4f3 243d 3153 d1bd 5a1d 80bc e791 23bb
00000080: 5ece 533e 98e8 873b 45da 163c 7776 fdbd
00000090: 610b 48bc 1c6b 1bbd 314b 853d 2d64 eb3d
000000a0: 9efe 323e d11a f4bd 9b33 423d 5241 29be
000000b0: 7409 1d3d 8907 13be 6f15 3b3c 0ddf 453e
000000c0: 7ed4 22be 1c4a 493e a8af 643d 6a72 c6bc
000000d0: 80ee 603d 6c80 97bc fa18 c53d 822b b2bd
000000e0: fc54 1abd c0ea 8e3d 368b 863d 7e1b a5bd
000000f0: 7b5b 3db7 f56b f4bd 59d6 83bd 7fc3 4e3e
00000100: 3ce5 99bd 6078 223e 8a0f e4bc 8672 09be
00000110: 3ead 383e b890 d93d 6b0e b93c 86a5 e23b
00000120: b50b ff3d 21b2 4ebc 290e 7d3d f732 003e
00000130: e0fa 0f3e 6b8c 11be ee4b 1e3e 9ee9 d6bd
00000140: 1f6a 873b 5ca3 21bd 6085 30bd e705 093e
00000150: 72e8 b73d 66ae 2cbe 9dcb afbd f988 24be
00000160: f009 713d 8e0f ccbd 002f f4bd ad51 0f3e
00000170: 173c 113b c85b d2bd ba42 ae3d a616 40bd
00000180: be6f 463e 61f3 103e 2d37 98bd a931 eabd
00000190: d9d7 d3bc e24b ed3c 70af 7b3a 730c de3d
000001a0: a553 9d3d c9a8 b0bd 8ee6 fcbd 8614 07be
000001b0: aaf5 b73d e68b b8bd 1cd7 cc3d f927 2e3e
000001c0: 2a8e 24be 7e96 013e 8dd6 f4bd b219 d03d
000001d0: 1d93 abbc fe21 183e 4e79 c23d edb3 683d
000001e0: c841 fabd 77d8 c1bb e236 223e 2ff2 c83c
000001f0: 8637 213e 6015 12bd 4304 e0bd d5a2 383e
00000200: ba12 12be b324 1e3e cc62 c4bc 76f7 023d
00000210: f2f9 653d 6e08 a13d 52ec 8b3d 06c6 373e
00000220: e228 3c3e 8e31 49bd 2eea 0ebe f113 8d3c
00000230: ebd6 b6bb 9397 82bd 7513 213d bf29 a53d
00000240: edd4 863d 4c11 2cbd aea9 213e 0450 5c3e
00000250: 617e 3a3c 8f14 77bd 7a59 75bb e9a8 a7bd
00000260: 8b6d 08be 04aa 81bd 1826 e9bb e02c 393d
00000270: 5659 d03c b71d 93bd fcdd bcbd 4b33 353c
00000280: d556 9a3c 3a12 9b3b d54c 633d b0fb 6dbc
00000290: 5695 e3bd 8bee babc c444 44bd 3762 0c3e
000002a0: a290 3d3e 9342 aa3d bcc5 4cbd b71b 183d
000002b0: e96a 813d d3b1 cbbd 5384 2c3e af2a db3d
000002c0: 3a66 a1bd 1f1f 243d d8b8 5ebd bd78 c43d
000002d0: da4a 7c3d d9fc db3c 0d7e a93d 5194 41bd
000002e0: 5e1f 90bd 01d2 ad3d 954b 0f3e 1559 9a3d
000002f0: 28de e73d b5b9 c4bd 6829 18bd 226f babc
00000300: 046a 2e3d ed39 83bb d966 be3c 9371 933c
00000310: 0e44 3ebd 5207 75bd fcb8 993d ebfb 363d
00000320: 254f f6bd 87f5 b5bd b263 4e3d 24a0 f43d
00000330: 08ca 00be 57d2 9f3d 1d3d 17be 8c25 8c3c
00000340: d341 b8bc 5680 953c f284 c2bd 9f34 c1bd
00000350: c651 aa3d a136 09bd 7b40 b03d 2527 fc3d
00000360: 57f5 d93d 38c8 a6bd d12f 2f3d f6fa 8dbd
00000370: 54bf d73d ed5b 343d 893f bdbb ca79 213d
00000380: 825a f23c 6a24 143c 1110 0d3e 3f4b 263d
00000390: 3fd2 29be a08f 863c 3a75 98bd 4e03 e83b
000003a0: 24ee 5ebd 35b0 933d e4fc 47bd 270a 76bd
000003b0: f426 cf3c bb1d cc3d cc6c c03d 3d52 84bd
000003c0: 6321 d33d 8bc9 223d d621 30bc b454 7a3d
000003d0: 7798 0bbd a653 cf3c 9457 1a3e 4991 cbbd
000003e0: ba8e 4f3d 1d9b d03c 574f 04be fed8 313d
000003f0: 7c60 bebd 9cb9 973d 2af5 213e ac50 1fbe

net.3.bias f4 [32]
0.09461422 0.08306979 -0.030594492 0.11635376 0.026599264 0.10075877 0.056760605 -0.02060255
0.020080714 0.1296491 0.16254695 -0.050379664 0.12219097 0.09089417 0.032651845 -0.056091297
-0.045772433 0.122830816 0.06681848 0.12606913 -0.023594938 -0.012081029 -0.03989286 0.13511096
-0.082948 -0.03206925 0.056775756 0.04575185 -0.056941785 0.06450865 0.016929444 -0.03623015
00000000: 1ac5 c13d 7e20 aa3d 4da1 fabc e14a ee3d
00000010: b3e6 d93c 9d5a ce3d cf7d 683d aec6 a8bc
00000020: 4f80 a43c bcc2 043e b572 263e e85a 4ebd
00000030: 423f fa3d b926 ba3d f1bd 053d fdbf 65bd
00000040: e07b 3bbd b98e fb3d 21d8 883d 4418 013e
00000050: 2c4a c1bc 82ef 45bc b266 23bd 875a 0a3e
00000060: a4e0 a9bd 0c5b 03bd b28d 683d 4b66 3b3d
00000070: ca3b 69bd 1c1d 843d 9eaf 8a3c 1166 14bd

net.6.weight f4 [1, 32]
0.13278167 0.2490685 0.1913418 -0.019814132 0.19339575 -0.1255863 -0.027424986 -0.0900194
-0.10955829 0.1664363 -0.10163195 -0.1333632 -0.18037428 0.2261674 0.20771867 0.17939726
0.22571579 -0.026236262 -0.06937234 -0.039821178 0.08929636 0.123502046 0.04794767 -0.17342868
-0.0764089 0.21093021 0.22401364 -0.041281626 -0.13051884 0.22287941 0.16647597 -0.03328737
00000000: ebf7 073e d00b 7f3e 1bef 433e 3f51 a2bc
00000010: 8909 463e b299 00be 5daa e0bc 175c b8bd
00000020: 1960 e0bd 476e 2a3e 6924 d0bd 5d90 08be
00000030: 09b4 38be 6d98 673e 34b4 543e eab3 373e
00000040: 0a22 673e 6eed d6bc 1613 8ebd 881b 23bd
00000050: 03e1 b63d a4ee fc3d c764 443d 4a97 31be
00000060: 457c 9cbd 17fe 573e d563 653e ec16 29bd
00000070: bba6 05be 803a 643e ad78 2a3e 5658 08bd
