trained_scorer/CiteSeer_epagcl_sage_scorer_model_100_epochs_s4_ex8.pt (torch, 342096 bytes, 5 tensors)

net.0.weight f4 [64, 1287]
-0.026820939 0.00065357314 -0.0802044 0.004332866 -0.051632207 -0.019738667 0.010206343 0.024135923
-0.027747514 -0.040893245 0.051002145 -0.018474339 0.05234121 -0.012170226 0.05051321 -0.049252316
-0.027690971 -0.010352839 -0.0355107 0.00044452862 -0.028648522 -0.07340568 -0.010490278 0.0018706253
0.0172636 -0.027381849 0.0051764394 -0.047596335 0.0059796334 -0.074943766 0.037076585 -0.054302853
-0.014131527 -0.024663005 0.0410279 -0.0465003 -0.052272398 0.048061546 -0.062465794 -0.027765697
0.024740426 -0.029463893 0.008313968 -0.0054650945 -0.037369788 -0.0010797421 0.06977447 -0.022981884
-0.028900705 -0.021875799 -0.04110625 -0.05484571 -0.05003304 0.010469082 -0.06464871 -0.008433009
-0.018184036 -0.046267677 0.03652666 -0.007014631 0.011730747 -0.050232813 -0.02672965 0.014544382
0.0075756465 -0.06583115 0.017624723 0.03884363 -0.02405814 -0.037867464 -0.015433912 -0.0021774943
-0.021347215 -0.059059184 -0.066124484 -0.06802447 -0.0679722 -0.016227901 -0.0018756422 0.043065973
-0.040361926 -0.07186432 0.010083931 -0.016503647 -0.02096975 -0.008681105 -0.018400695 -0.06006573
-0.012732344 -0.045493145 0.0015548809 0.009241862 0.009332826 0.014025002 -0.060873244 -0.012828843
-0.033742014 -0.012174738 -0.027747218 -0.0325576 -0.058751855 -0.043964338 -0.006290203 -0.072737314
-0.029934697 -0.024784429 -0.0034553555 -0.047886394 0.017739022 -0.026371494 0.06796404 0.010561908
0.072926365 -0.05491998 0.00530951 -0.07016393 0.0018290054 -0.063529335 -0.044415273 -0.052726697
-0.01674635 0.04678497 -0.035207868 -0.07547638 -0.035502423 -0.04658195 -0.04322619 -0.02951947
0.032016598 -0.028048342 0.019383457 0.06853129 -0.11512142 -0.00025907293 -0.036814764 -0.020206878
-0.038952295 -0.054758117 -0.001482852 -0.030569047 0.0021449002 -0.055416275 -0.009190234 -0.003184695
-0.022030907 -0.005777517 0.01594517 -0.012963648 -0.023579398 -0.0022463037 -0.02609487 -0.0032874222
-0.05990929 -0.07076473 0.014727338 -0.023468155 -0.02468716 0.030383026 0.012348585 -0.08677115
-0.052910846 -0.0035229633 -0.021299424 -0.0542994 -0.03976094 0.009741764 -0.00725216 0.0036468462
-0.015910832 0.023221932 -0.0015094887 0.03061724 -0.03584659 -0.034635935 -0.05913669 0.012514686
0.009904784 -0.028786408 0.022861 -0.061894696 -0.02107385 -0.035688747 -0.007100618 -0.04284544
-0.016944058 0.0019603523 -0.05289839 -0.0044596856 -0.016434614 -0.012269445 -0.03146238 0.012395812
0.043877922 -0.0019662995 0.016987326 -0.035923906 0.023900023 0.05540284 0.0004019264 -0.047221508
-0.04554592 -0.022432303 0.022928225 -0.0054696724 -0.08327022 -0.06530363 -0.04944494 -0.04810586
-0.041109636 -0.002098055 -0.026641814 0.00025780953 -0.036411278 -0.0418192 -0.036052536 0.053430602
-0.034970596 -0.023367308 -0.004870967 -0.05225174 -0.0405981 0.046527334 -0.041345242 -0.0006239301
0.005607754 0.022403263 -0.00045107157 -0.020157034 0.0055092205 -0.05697899 -0.031931818 0.026450101
-0.02363269 0.003976744 -0.019111883 0.0049887663 -0.016364602 -0.02521421 -0.043645583 -0.058658317
-0.010958397 0.026621003 -0.0050831567 -0.024445452 -0.00970113 -0.015349053 -0.022091283 -0.030748328
-0.022729356 -0.021389725 -0.00437026 -0.04120521 -0.031996958 -0.07731327 0.027754778 0.021496098
00000000: 96b7 dbbc 8d54 2b3a 3442 a4bd b7fa 8d3b
00000010: 4b7c 53bd fcb2 a1bc 8138 273c b3b8 c53c
00000020: c14e e3bc ad7f 27bd a0e7 503d 7f57 97bc
00000030: bd63 563d a165 47bc f1e6 4e3d ccbc 49bd
00000040: 2dd8 e2bc f49e 29bc ab73 11bd 9f0f e939
00000050: 4eb0 eabc b855 96bd 6adf 2bbc c52f f53a
00000060: 656c 8d3c e64f e0bc 1f9f a93b 60f4 42bd
00000070: cdf0 c33b 1e7c 99bd 9edd 173d ab6c 5ebd
00000080: ec87 67bc 120a cabc df0c 283d 1977 3ebd
00000090: 951b 56bd 2fdc 443d 22dc 7fbd e374 e3bc
000000a0: 6fac ca3c 435e f1bc 4f37 083c 8914 b3bb
000000b0: 1011 19bd 2286 8dba ebe5 8e3d 8144 bcbc
000000c0: 2cc1 ecbc e034 b3bc 075f 28bd e5a5 60bd
000000d0: 72ef 4cbd 8386 2b3c 8b66 84bd 9a2a 0abc
000000e0: b0f6 94bc 2d83 3dbd fb9c 153d fdda e5bb
000000f0: 5232 403c ecc0 4dbd 24f8 dabc 8f4b 6e3c
00000100: 213d f83b 7bd2 86bd b961 903c 801a 1f3d
00000110: 9415 c5bc ea1a 1bbd 85de 7cbc 4bb4 0ebb
00000120: 5be0 aebc 0be8 71bd 466c 87bd 6a50 8bbd
00000130: 0235 8bbd 60f0 84bc 1cd8 f5ba f265 303d
00000140: 8c52 25bd 9a2d 93bd 1237 253c a832 87bc
00000150: c1c8 abbc 323b 0ebc 0ebd 96bc 7c07 76bd
00000160: 529b 50bc 0557 3abd 25cd cb3a 2e6b 173c
00000170: b6e8 183c 1fc9 653c 3956 79bd 1130 52bc
00000180: 1135 0abd 8d78 47bc 224e e3bc 1e5b 05bd
00000190: c9a5 70bd f313 34bd 0c1e cebb 4df7 94bd
000001a0: 9c39 f5bc b708 cbbc 3f73 62bb 8624 44bd
000001b0: 6d51 913c 0809 d8bc bb30 8b3d da0b 2d3c
000001c0: 6b5a 953d c6f3 60bd 66fb ad3b 1bb2 8fbd
000001d0: 3dbb ef3a ab1b 82bd caec 35bd f3f7 57bd
000001e0: a42f 89bc 99a1 3f3d 2036 10bd 5c93 9abd
000001f0: fd6a 11bd b7cc 3ebd f20d 31bd d1d2 f1bc
00000200: d623 033d a3c5 e5bc 0eca 9e3c 225a 8c3d
00000210: c7c4 ebbd 2ed4 87b9 14cb 16bd e588 a5bc
00000220: 718c 1fbd 0c4a 60bd 425c c2ba f06b fabc
00000230: 7491 0c3b 2dfc 62bd a392 16bc 51b6 50bb
00000240: 297a b4bc 5351 bdbb 729f 823c 7b65 54bc
00000250: 9529 c1bc b936 13bb e9c4 d5bc cb71 57bb
00000260: 7263 75bd 19ed 90bd ef4a 713c 4a40 c0bc
00000270: ba3c cabc d3e5 f83c b851 4a3c 13b5 b1bd
00000280: 0bb9 58bd 84e1 66bb 217c aebc 0c69 5ebd
00000290: 5edc 22bd eb9b 1f3c 87a3 edbb edff 6e3b
000002a0: 6f57 82bc ec3b be3c 09da c5ba 02d1 fa3c
000002b0: e0d3 12bd 69de 0dbd 5039 72bd 660a 4d3c
000002c0: ad47 223c 79d1 ebbc fe46 bb3c 4b85 7dbd
000002d0: 11a3 acbc 5d2e 12bd 4dac e8bb b37e 2fbd
000002e0: 44ce 8abc 4179 003b fbab 58bd 8e22 92bb
000002f0: e2a1 86bc c805 49bc b2de 00bd ce17 4b3c
00000300: 56b9 333d 08dd 00bb 0129 8b3c f224 13bd
00000310: fbc9 c33c 17ee 623d a6b9 d239 576b 41bd
00000320: 5c8e 3abd f3c3 b7bc f9d3 bb3c f03a b3bb
00000330: 9489 aabd e9bd 85bd c786 4abd a60a 45bd
00000340: 9462 28bd 867f 09bb ef3f dabc 9c2a 8739
00000350: fe23 15bd 9c4a 2bbd d3ab 13bd 0cda 5a3d
00000360: 543d 0fbd cc6c bfbc a29c 9fbb ec05 56bd
00000370: 314a 26bd 7293 3e3d a159 29bd 3d8f 23ba
00000380: 40c1 b73b 0c87 b73c cd7d ecb9 5d20 a5bc
00000390: b186 b43b cd62 69bd f0ca 02bd e2ad d83c
000003a0: 5899 c1bc 594f 823b 8690 9cbc ce78 a33b
000003b0: 0f0f 86bc 088e cebc b6c5 32bd b443 70bd
000003c0: d98a 33bc 4a14 da3c 9c90 a6bb d441 c8bc
000003d0: 7df1 1ebc 987a 7bbc c7f8 b4bc ebe3 fbbc
000003e0: ea32 babc 8139 afbc 6634 8fbb cbc6 28bd
000003f0: 3e0f 03bd 6b56 9ebd fd5d e33c 9618 b03c

net.0.bias f4 [64]
0.051067736 0.01808837 0.004880758 -0.0153321745 0.01388658 0.038049895 0.015725214 0.0004343587
0.0750622 0.004751096 -0.015255733 0.023224829 0.038611248 -0.009111216 0.05509721 -0.0020724023
0.028290525 -0.053334374 0.046991985 0.057414416 -0.038721453 0.00036415856 -0.006197604 0.013271587
-0.0062156906 -0.0348898 0.0043247365 0.06923303 -0.029108537 0.0630794 -0.010538774 0.0101905065
0.024096387 0.06664826 0.0058179414 -0.017163856 -0.018922865 0.056513 -0.024891017 0.046527885
0.058602992 -0.055841066 -0.003995442 -0.0069261272 0.05343522 0.017781598 0.037207175 0.023282941
-0.018601408 0.0485503 0.0033262898 -0.018291801 0.028138496 0.02767542 0.03520033 -0.04133814
-0.005733153 0.030323558 0.06508703 -0.016466627 0.040133465 0.019880358 0.040274367 0.024662573
00000000: 672c 513d 102e 943c c4ee 9f3b cd33 7bbc
00000010: 8a84 633c 35da 1b3d 2ad2 803c a3ba e339
00000020: 36ba 993d 15af 9b3b 2ff3 79bc ff41 be3c
00000030: d426 1e3d 3647 15bc 9dad 613d 24d1 07bb
00000040: 88c1 e73c 2575 5abd ab7a 403d 612b 6b3d
00000050: 639a 1ebd 89ec be39 4515 cbbb 1271 593c
00000060: feac cbbb 9be8 0ebd 85b6 8d3b 0cca 8d3d
00000070: 0775 eebc c62f 813d d2aa 2cbc 15f6 263c
00000080: c965 c53c e27e 883d 6ea4 be3b 379b 8cbc
00000090: 2004 9bbc 2d7a 673d 3fe8 cbbc 0694 3e3d
000000a0: b109 703d 9ab9 64bd 32ec 82bb 91f4 e2bb
000000b0: e4de 5a3d b7aa 913c 8d66 183d debb be3c
000000c0: fb61 98bc aedc 463d e2fd 593b b0d8 95bc
000000d0: b482 e63c 90b7 e23c 392e 103d 2e52 29bd
000000e0: 2cdd bbbb 1c69 f83c 594c 853d 05e5 86bc
000000f0: fd62 243d 22dc a23c bcf6 243d 2a09 ca3c

net.3.weight f4 [32, 64]
-0.089457035 0.17519335 -0.04445183 -0.16231884 0.08502121 0.16302142 -0.06298893 0.07956317
0.21945105 0.03737175 0.03796205 0.11392301 0.08010668 -0.08893729 0.118760146 0.002536429
0.02318921 -0.029983291 0.21843915 0.15365031 -0.06875115 -0.036035962 -0.11195147 0.005725581
0.03132174 -0.034797598 -0.08732795 -0.004864314 0.015899288 -0.1947819 -0.006604002 -0.015235569
0.24479061 0.10144687 0.009185048 -0.1470151 0.03539457 -0.024918228 0.07898651 0.17061614
0.18589106 -0.19977194 0.05010307 -0.16830099 0.049128514 -0.20849131 0.014900345 0.21982662
-0.17453617 0.20091976 0.027744437 -0.02527102 0.038479693 -0.024311727 0.0855001 -0.18890162
-0.04278053 0.13604103 0.0786012 -0.09182501 0.048777957 -0.1501104 -0.13033204 0.23461351
-0.093192875 0.18514352 -0.040047638 -0.1433465 0.19734344 0.13564293 0.014845831 -0.05087795
0.12682697 -0.015956208 0.045132786 0.18555509 0.164761 -0.14206003 0.15521161 -0.10277611
0.02203098 -0.016387634 -0.03099402 0.14117585 0.09937015 -0.056996606 -0.0860133 -0.16521785
0.05279159 -0.094782405 -0.11707301 0.14731349 0.0011760567 -0.1711142 0.09297364 -0.04357392
0.2054186 0.24517816 -0.08055981 -0.13650297 0.017575905 0.03452189 0.0073067225 0.14807317
0.07671182 -0.15015064 -0.12798002 -0.14171292 0.08493918 -0.12122332 0.082917675 0.16230744
-0.16501053 0.12301836 -0.14403583 0.10178259 -0.020838838 0.1112259 0.077848405 -0.0034644501
-0.13051063 0.033091344 0.16125314 0.038130328 0.17634821 -0.05116051 -0.15327097 0.1865602
-0.1698766 0.20529015 -0.041859142 0.031631716 0.10114917 0.14519829 0.06269652 0.08208061
0.2019165 -0.03982608 -0.14644624 0.11240936 0.033177126 -0.05687168 0.052337367 0.090743236
0.11896352 -0.034597702 0.19138902 0.24588698 0.007649592 0.01222426 -0.004009244 -0.11437945
-0.13724162 -0.05540239 0.0007029225 0.07239728 0.020036574 -0.12162736 -0.106184535 0.0016787966
0.06545166 0.1191012 0.060634557 -0.03173387 -0.07722207 -0.014239521 -0.04707614 0.18941583
0.21575387 0.008050599 -0.05796723 0.054195922 0.08075857 -0.14102449 0.16445196 0.1261606
-0.09954827 0.06599144 -0.045424864 0.09884903 0.058791723 -0.0107717 0.08119225 -0.10296185
-0.07231382 0.15347882 0.17438829 0.0627484 0.16844223 -0.13363215 -0.08147243 0.014264228
0.08845712 -0.053026382 0.008590469 0.012276425 -0.085135415 -0.1023819 0.06720273 0.1204639
-0.12361421 -0.11092991 0.053953085 0.04301558 -0.15387283 0.06325558 -0.1484144 0.01759772
-0.060840435 -0.014552192 -0.12155805 -0.121119566 0.09051456 -0.15571187 0.064065166 0.17590305
0.10074027 -0.09135159 0.03910066 -0.09353129 0.09986659 0.19162175 -0.031973578 0.031934753
-0.015681047 -0.079980046 0.15537214 0.06253555 -0.24004804 0.075101905 -0.09616796 -0.054432217
-0.06037735 0.12926522 -0.034194294 -0.090948164 0.006191497 0.2031803 0.0862384 -0.08655879
0.10168726 0.002258992 0.02186887 0.038625214 0.018591253 0.08295328 0.19916713 -0.041313488
0.04145377 -0.037483145 -0.13361923 0.031390615 -0.12838937 0.15174335 0.28922623 -0.16549426
00000000: 4035 b7bd e365 333e 1f13 36bd e936 26be
00000010: 9a1f ae3d 16ef 263e 5700 81bd 04f2 a23d
00000020: c7b7 603e 1f13 193d 187e 1b3d 7850 e93d
00000030: f90e a43d c124 b6bd 8538 f33d 383a 263b
00000040: 4cf7 bd3c 859f f5bc 83ae 5f3e 8256 1d3e
00000050: 67cd 8cbd 729a 13bd d046 e5bd a89d bb3b
00000060: 3a4b 003d ed87 0ebd ffd8 b2bd d364 9fbb
00000070: 393f 823c e874 47be 6266 d8bb 9c9e 79bc
00000080: 64aa 7a3e 60c3 cf3d e27c 163c 208b 16be
00000090: e6f9 103d 5021 ccbc aec3 a13d ffb5 2e3e
000000a0: 3a5a 3e3e 0491 4cbe e038 4d3d 1857 2cbe
000000b0: fb3a 493d bf7e 55be 9420 743c 3b1a 613e
000000c0: 9cb9 32be e9bd 4d3e 4d48 e33c 2c05 cfbc
000000d0: e29c 1d3d 6329 c7bc ad1a af3d 6d6f 41be
000000e0: a33a 2fbd 574e 0b3e aaf9 a03d c00e bcbd
000000f0: 65cb 473d 8ab6 19be c375 05be 863e 703e
00000100: e8db bebd 4396 3d3e fe08 24bd 6dc9 12be
00000110: 6614 4a3e fbe5 0a3e ee3b 733c 6665 50bd
00000120: eede 013e 98b6 82bc 28dd 383d 2702 3e3e
00000130: 1cb7 283e 2f78 11be cbef 1e3e 487c d2bd
00000140: 507a b43c 5c3f 86bc 2ce7 fdbc 6790 103e
00000150: 9482 cb3d 4675 69bd be27 b0bd de2e 29be
00000160: ff3b 583d 471d c2bd f9c3 efbd 59d9 163e
00000170: ea25 9a3a 9038 2fbe f768 be3d 917a 32bd
00000180: 4159 523e fc0f 7b3e 8bfc a4bd 6fc7 0bbe
00000190: 58fb 8f3c d366 0d3d 3b6d ef3b 7ea0 173e
000001a0: 161b 9d3d 17c1 19be 320d 03be 311d 11be
000001b0: 98f4 ad3d ef43 f8bd bed0 a93d ec33 263e
000001c0: 85f8 28be 0df1 fb3d 217e 13be 6473 d03d
000001d0: 36b6 aabc 68ca e33d fc6e 9f3d d40b 63bb
000001e0: 94a4 05be ca8a 073d 8b1f 253e 8c2e 1c3d
000001f0: a094 343e af8d 51bd 11f3 1cbe a309 3f3e
00000200: 22f4 2dbe 9537 523e 7e74 2bbd 4290 013d
00000210: 4c27 cf3d dcae 143e 0867 803d e119 a83d
00000220: 33c3 4e3e ac20 23bd 01f6 15be e136 e63d
00000230: bde4 073d 47f2 68bd b55f 563d 97d7 b93d
00000240: 25a3 f33d 52b6 0dbd 7cfb 433e ccc9 7b3e
00000250: 6ea9 fa3b 4348 483c fa5f 83bb c63f eabd
00000260: 1189 0cbe 9eed 62bd 5544 383a 0645 943d
00000270: be23 a43c c417 f9bd 4777 d9bd 110b dc3a
00000280: 850b 863d 54eb f33d f15b 783d 60fb 01bd
00000290: 9b26 9ebd e14c 69bc e9d2 40bd 39f6 413e
000002a0: 95ee 5c3e a9e6 033c 0c6f 6dbd 8bfc 5d3d
000002b0: c064 a53d b968 10be 1866 283e 3f30 013e
000002c0: f7df cbbd 8526 873d 6c0f 3abd 5c71 ca3d
000002d0: 97cf 703d c97b 30bc 1f48 a63d aadd d2bd
000002e0: 4519 94bd 8d29 1d3e d892 323e 3c82 803d
000002f0: 1f7c 2c3e ded6 08be 04db a6bd 82b4 693c
00000300: 0229 b53d 3132 59bd 0abf 0c3c 0f23 493c
00000310: 7a5b aebd 9aad d1bd 96a1 893d c7b5 f63d
00000320: 7229 fdbd 382f e3bd e9fd 5c3d 1b31 303d
00000330: d790 1dbe 248c 813d f2f9 17be 1829 903c
00000340: d233 79bd 516c 6ebc 6df3 f8bd 890d f8bd
00000350: b35f b93d ef72 1fbe 9934 833d ee1f 343e
00000360: ea50 ce3d 8b16 bbbd 0328 203d 558d bfbd
00000370: db86 cc3d 7e38 443e baf6 02bd 04ce 023d
00000380: 8a75 80bc 94cc a3bd e019 1f3e a312 803d
00000390: 27cf 75be 07cf 993d b5f3 c4bd 51f4 5ebd
000003a0: 3d4e 77bd 1a5e 043e 510f 0cbd 0843 babd
000003b0: 0be2 ca3b 7f0e 503e c29d b03d bc45 b1bd
000003c0: 6941 d03d 990b 143b 5826 b33c 7935 1e3d
000003d0: af4c 983c 69e3 a93d 78f2 4b3e 5538 29bd
000003e0: 6ecb 293d ed87 19bd 7bd3 08be 7293 003d
000003f0: 8178 03be 9c62 1b3e 7615 943e 5477 29be

net.3.bias f4 [32]
0.10481226 0.086351216 0.0034125904 0.12554674 0.046190184 0.10993574 0.09456095 0.016042002
0.040989988 0.1376469 0.16409947 -0.02172345 0.12985963 0.09753623 0.04962046 -0.04275206
-0.046663042 0.116450004 0.07159184 0.1390668 0.0021742308 0.013420146 -0.026035931 0.13427499
-0.08452662 -0.004487266 0.060122665 0.068303116 -0.028197413 0.07795465 0.020328404 0.07725432
00000000: cfa7 d63d e8d8 b03d c4a5 5f3b 538f 003e
00000010: eb31 3d3d fd25 e13d 2ca9 c13d 846a 833c
00000020: 1ee5 273d 4ff3 0c3e b109 283e 60f5 b1bc
00000030: ecf9 043e 13c1 c73d d33e 4b3d c91c 2fbd
00000040: bf21 3fbd 577d ee3d be9e 923d 8767 0e3e
00000050: 8a7d 0e3b 2ce0 5b3c 4e49 d5bc 627f 093e
00000060: 4b1c adbd ea09 93bb 2f43 763d 81e2 8b3d
00000070: 43fe e6bc b0a6 9f3d c187 a63c 8337 9e3d

net.6.weight f4 [1, 32]
0.17671102 0.27335352 0.2451992 -0.06893789 0.23663256 -0.14438196 -0.07454687 -0.15944895
-0.1380774 0.19641203 -0.14644712 -0.1787948 -0.2523149 0.25774413 0.246257 0.22825867
0.26978517 -0.05526211 -0.10161082 -0.08393844 0.1727335 0.2213013 0.1344286 -0.24223389
-0.10139525 0.26149833 0.26546448 -0.08958795 -0.15320279 0.25759962 0.21183272 -0.11087609
00000000: bcf3 343e fef4 8b3e 8015 7b3e 4f2f 8dbd
00000010: ce4f 723e ddd8 13be 08ac 98bd 9646 23be
00000020: 2964 0dbe 3c20 493e 3cf6 15be fc15 37be
00000030: 6b2f 81be 0af7 833e cc2a 7c3e a4bc 693e
00000040: 4821 8a3e 865a 62bd 5519 d0bd ebe7 abbd
00000050: 0de1 303e cf9c 623e a7a7 093e 290c 78be
00000060: 50a8 cfbd 1ce3 853e f6ea 873e e379 b7bd
00000070: 31e1 1cbe 19e4 833e adea 583e 0113 e3bd
