trained_scorer/Cora_gca_scorer_model_v1.pt (torch, 177932 bytes, 5 tensors)

net.0.weight f4 [64, 647]
00000000: cb80 ed3c bc84 e43c b2b5 35bc 4a91 033d
00000010: c4e0 8bbb e976 183a 13c6 9fbc 2b70 de3c
00000020: 9598 153d 8523 e9bc 71e1 d83c 1059 153c
00000030: ed67 043d 0f7a fd3b efc3 8e3c f844 fdbb
00000040: 08eb de3c 0c6d c9ba 6587 a2bc eb43 1a3c
00000050: 9fd7 b5bc c58f 38bc cbe4 b1bc 24bc cd3c
00000060: 8df7 10bd e57f 91bc ad63 c5bb 120f cabc
00000070: 5449 f13a fdfe febc 9208 1b3d dba8 edbc
00000080: 7b6f ce3c 9e86 603c 42ee 76bc e2af 003d
00000090: fbca 1d3c c08f 1d3d 490a ff3b a7e0 6bbc
000000a0: fcf4 633c 80fb 60bc 814b 603c aef1 df3c
000000b0: 1616 c83c b0dd 26bc 54f6 e03c ece7 f23b
000000c0: 75a3 503c 1d0d d7bc f402 34bd 2f07 a8bc
000000d0: a54e c4bc d887 e63c ef53 e43b 6ee8 ae3c
000000e0: 500d a03c 442d 963a c761 153d bfcb dabc
000000f0: 239b 803a 78bd 96bc c807 a23c 2c24 d7bb
00000100: 5762 153c ce69 b9bb fca5 253d c4f7 d0bc
00000110: f68e cebc eeac a3bc 1faf 263d 1131 2c3c
00000120: 5fab 053d 582d cfbc 5672 18bd 50cf febc
00000130: 3228 ebbc 1661 cc3c 50b8 903c 8609 0b3d
00000140: eb56 98bc 9d40 f2bc 24a1 e63c 6760 53bc
00000150: 993e af3c 4309 87bc 8e2a ee3c 72c3 08bd
00000160: 8e40 c4bc b7c5 b43c 4112 213c 9326 efbb
00000170: edd7 163d b1d0 0c3d 3b94 e2bc f8fc 98bc
00000180: 25da 313d 9877 f0bb 2f89 78bc d2c8 18bd
00000190: c479 e9bc 1f1c 1f3c cb84 963b bd61 d7bc
000001a0: 23c2 dab9 af43 99bc 1f7a 06bd 6a70 4ebc
000001b0: e42a 31bd 40a7 d7bc 811f 293d 6698 413a
000001c0: fad0 863c 9d6e 30bd 1368 95bc a449 8dbc
000001d0: ad83 513c 54f3 0ebd 7044 c2bc a622 cebc
000001e0: e309 833b 1c81 a9bc 20a8 e73a bf08 90bc
000001f0: dc59 c6bc fba5 8fbc d64c 8dbc bacb 17bd
00000200: aa16 103d bc63 2cbc 3e44 0e3d 0b9d 833b
00000210: 8a5e e0bc e430 cc3c d84e 2dbc 6e95 44bc
00000220: b6bd dbbc fc93 31bd 2bcf 9e3b 40d6 70bc
00000230: ff10 543c f6c4 f1bc e107 db3c 861d 09bd
00000240: 3d32 dabb 5a73 b03a c0da 833c c4a9 0a3d
00000250: 0437 143d cfae 06bd ceb2 213c 37cb 81bc
00000260: 7eb4 60b6 243b debc 6486 1e3d efd9 e4bc
00000270: 2e94 773c a268 c43c 5056 9b3c 6c0c 58bc
00000280: c2e5 ea3c f3dd 153c c3b9 7d39 f6e8 f7bc
00000290: 4974 8b3c 6539 5bb9 91d8 9ebc 2ee2 083d
000002a0: c735 c23b 635b 8fbc 1873 a1bc 1584 00bc
000002b0: 0e75 ad3c bbe6 7fbc 201e 5fbc 8b32 96bc
000002c0: cb3f 1ebd 10c5 0e3c 4f69 c03c 5ea6 38bd
000002d0: 02f8 873c 4e78 bf3c a292 b43b 9aca 42bc
000002e0: 7d1d e73c dfa9 d03c 1c4a a13c 07bb 95bb
000002f0: f937 afbb 10dc 753c 4a52 ef39 3075 f7bb
00000300: a29d da3c 8f56 243d 72a3 31ba 98d7 5ebc
00000310: 1c42 a0b9 d8ea 24bb 3f40 4a3c 70ff 203c
00000320: fbe9 23bd e355 c9bb 0b4a 073d 3261 533c
00000330: 4193 5eb9 6bde 7cbc 96f2 c2bc 19c8 04bd
00000340: 1aaf 28bc 0dd3 fa3b da69 123d 03f5 c93c
00000350: 286a 2ebd fc21 05bd 022c d8bb db35 013d
00000360: 0845 bf3a 03fb 13bb 12de 8e3c b839 5ebc
00000370: 14c7 4bbc 80a1 b63c c359 69bc d18a 99bb
00000380: 0f30 f3bc fe7f 1b3d 02ee 003d 1b37 5f3c
00000390: befa f8bc 2d5b 15bd 9f24 d8bc 0ea0 db3c
000003a0: 8720 8f3c 2ce6 233d 3661 a13c 45bc ad3c
000003b0: f4cd c6bb 917d 0abd 9821 eebc a291 29bd
000003c0: 3337 bc3c 9818 c9bc 5fae 5bbb a451 f9bc
000003d0: 1cf6 2bbc bd6e b4bc d840 fabc 30d2 e73b
000003e0: f070 0bbc ea5a a93c 7cbf 09bc 3bd0 bfbc
000003f0: df19 eebb f163 5bbc b248 57bc ff13 1cbd
0.028992077 0.027895324 -0.011090683 0.03212098 -0.0042687375 0.0005816059 -0.019503629 0.027153095
0.036522467 -0.02845932 0.026474686 0.009115472 0.032325674 0.007735498 0.017427413 -0.007729169
0.027211681 -0.0015367582 -0.019839952 0.009415607 -0.022197543 -0.011264746 -0.021715542 0.025114127
-0.035392333 -0.01776118 -0.006023845 -0.02466539 0.0018408694 -0.031127447 0.03784997 -0.02901118
0.025199642 0.01370397 -0.0150714535 0.031417735 0.009630914 0.03846717 0.0077832085 -0.014396823
0.013913389 -0.013731837 0.0136898765 0.027336922 0.024424594 -0.01018469 0.027461208 0.007412901
0.012734284 -0.02625137 -0.04394813 -0.020511238 -0.023963282 0.028140947 0.0069680135 0.021351065
0.019537598 0.0011457582 0.0364702 -0.026708482 0.0009811859 -0.018400893 0.019779101 -0.0065655913
0.009117684 -0.005658365 0.0404415 -0.025508769 -0.025214653 -0.01997992 0.040694352 0.010509745
0.032634135 -0.025290176 -0.037218414 -0.031104714 -0.02870569 0.024948638 0.017666012 0.03394463
-0.018596133 -0.029571826 0.02815301 -0.012901402 0.021392154 -0.016483909 0.029073026 -0.033389516
-0.023956563 0.022066934 0.009831012 -0.0072982996 0.036827017 0.03437871 -0.027658572 -0.018675312
0.04342093 -0.0073384754 -0.015169426 -0.037300892 -0.028500445 0.009711294 0.004593467 -0.026291722
-0.00041724843 -0.018709032 -0.032831308 -0.012600044 -0.043253794 -0.026324868 0.04128981 0.0007385075
0.01645707 -0.04307424 -0.018238103 -0.017247029 0.012787742 -0.034900025 -0.023714274 -0.025163006
0.0039989813 -0.020691447 0.0017674007 -0.017582295 -0.02421277 -0.0175352 -0.017248552 -0.037059523
0.035177864 -0.010521825 0.03473305 0.0040165237 -0.02738883 0.024925657 -0.01057788 -0.011998517
-0.02682386 -0.04335402 0.0048464737 -0.014699519 0.012943505 -0.029512864 0.026737155 -0.03347542
-0.006658821 0.0013462112 0.016095519 0.033853307 0.03618528 -0.032881554 0.0098692905 -0.01584397
-3.3483661e-06 -0.02712781 0.038702384 -0.02793595 0.015111012 0.023975674 0.018962055 -0.013186555
0.02867401 0.009147155 0.00024197162 -0.030262452 0.017023223 -0.00020906849 -0.019390376 0.033418827
0.005926821 -0.017499631 -0.019708201 -0.007843991 0.02117398 -0.015618975 -0.013618022 -0.018334648
-0.038635056 0.008713976 0.023487715 -0.045080535 0.016597752 0.023372795 0.005510644 -0.011889124
0.028212303 0.025471626 0.019688658 -0.0045694145 -0.0053472486 0.01500608 0.00045646942 -0.0075518116
0.026686493 0.04012161 -0.00067763694 -0.013601206 -0.00030566833 -0.0025164392 0.012344419 0.009826526
-0.040018063 -0.0061442717 0.033029597 0.012901591 -0.00021226426 -0.015433888 -0.023797315 -0.03241739
-0.010295654 0.0076545537 0.03574548 0.024652964 -0.042581707 -0.032503113 -0.006597043 0.0315455
0.0014592716 -0.0022580035 0.017439876 -0.013563566 -0.012437601 0.022293806 -0.014242592 -0.0046857377
-0.029686002 0.03796386 0.031476982 0.013623978 -0.030393 -0.036463905 -0.02638465 0.026809718
0.017471565 0.04001443 0.019699674 0.021207938 -0.006067032 -0.033811156 -0.029068753 -0.041398652
0.02297554 -0.02454786 -0.0033520681 -0.030434437 -0.010495689 -0.02202546 -0.030548498 0.007074617
-0.008510813 0.020673234 -0.00840747 -0.023414722 -0.0072662677 -0.013390527 -0.0131398905 -0.038105007

net.0.bias f4 [64]
00000000: ec25 de3c 9198 813c 0b42 98bc cc90 19bc
00000010: 5551 a2bc 903e cdbc a51c f53c 983e 053d
00000020: 8cdf fe3c 7a1d e63b 2a50 e43b f9ac 1cbc
00000030: 2983 86bc 9a4a bc3c 8a52 833b eb98 adbc
00000040: a3c8 35bb 2faf 0e3c 1563 78bc 63e4 08bd
00000050: b6c9 813c 61ca c43c bb6a 56bb 953a f3bc
00000060: 2bb7 103d 1362 3c3c 685c 703b 6d5f ff3c
00000070: d629 2b3d a80b d8bb a421 0f3c 9175 0b3c
00000080: a74e 403c e076 87bc 7d85 1c3b 0ac2 903c
00000090: 0aa4 bbbc 1c15 99ba a6bc 283b 081c 0dbd
000000a0: cbd0 c63c 1ec6 043c 6fa2 40bc c00f 48bb
000000b0: cb7c 813c 920b be3c c96a 2cbb 60ed b7bc
000000c0: 8ef9 16bd 954c 82bc ca61 be3a ffef 05bd
000000d0: 38df e8bb 7e4e c0bc 6927 d4bc cd86 05bd
000000e0: a78d 953c b038 143d 0a88 363d d9b5 9fbc
000000f0: d57e 7e3c ca83 a33c 3c29 4dbb 3c0e 9c3c
0.027117692 0.01581982 -0.01858618 -0.009372901 -0.019814173 -0.025054246 0.029920885 0.032530397
0.031112455 0.007022557 0.006967564 -0.009562724 -0.016419964 0.022984792 0.004007642 -0.021191081
-0.0027737997 0.008708759 -0.015160342 -0.03342093 0.015843254 0.024022283 -0.0032717425 -0.02969102
0.035330933 0.011497992 0.0036676172 0.031173432 0.041787945 -0.0065931864 0.008736048 0.008511917
0.011737502 -0.016536176 0.0023883276 0.01767065 -0.022905368 -0.0011679265 0.002574721 -0.03445056
0.024269482 0.008103875 -0.011757477 -0.0030526966 0.015806576 0.023198877 -0.0026308766 -0.022452056
-0.036859088 -0.015905658 0.0014524993 -0.03269958 -0.007106688 -0.023474928 -0.025897698 -0.03259926
0.018256022 0.036186874 0.04456333 -0.019495891 0.015533169 0.019960303 -0.0031305095 0.019049756

net.3.weight f4 [32, 64]
00000000: f3c9 c43d a075 573d 9bef c7bc 31af cf3c
00000010: d7ae 093d 691c 93bd 5829 863c 7285 b13d
00000020: 4095 f0bd 2640 9a3d ff33 4dbd f68a f23d
00000030: a96c 123c d2bc 99bb 5969 f73d 81fd 573d
00000040: 57b9 ae3d c6d2 413d ea2b 883c 361e 19bc
00000050: 174a b23d 00f6 5bbd 3e38 3b3d c1af 923d
00000060: d715 8bbd 6f18 023d fb02 413c ee4b ebbd
00000070: ac45 83bd fcb1 8bbd 7612 47bd 91cc df3d
00000080: 2282 803d a3f4 d4bd 9027 c5bd 261a 9fbb
00000090: 4cbf 333c 1906 6bbd 4b2f 1ebc 6a22 7b3d
000000a0: 5910 493d 0554 d2bd cec8 20bd 2350 883d
000000b0: 2c3e 7f3d 9a0d f4bc 7401 82bd d46c 45bc
000000c0: 78fb 0cba b9e9 003d 5467 8bbd 249b cfbd
000000d0: 2ec6 a1bd 864a 65bc b3fe d0ba a5f2 0a3b
000000e0: d227 9ebd 5081 bd3d fcdb 49bd b3b1 1fbb
000000f0: 7a74 58bc 3852 b0bc d137 55bd 339a 903b
00000100: 3413 15bd 27bc fe3d 01ee eabd e678 86bd
00000110: a40b babd 6f1d be3c af68 cdbc 7ca5 cb3d
00000120: 88e7 a53d 7252 153c 17fc c93c 459a be3d
00000130: 2ab4 513d bbfc 4d3d edbc 9dbd 87aa c9bd
00000140: 87ae a03d 6b9d 8cbd a5c6 c9bd 8827 83bd
00000150: 8398 99bd 3eeb 18bd 5e82 d33d d483 a5bd
00000160: 55f2 e23d 94b4 c73d 0518 453d 5ac8 ee3d
00000170: 0a20 56bd 39f2 88bd b3b3 99bd 128f 603d
00000180: 928a dcbc 3eea 8d3c df5c d8bd ac44 f53d
00000190: e580 5cbb 8105 90bc afe5 d53d fe66 0a3e
000001a0: 4153 08be 1b68 293c c45a f8bd 4ffd cbbd
000001b0: 50dc c93b 3bd0 883d 5867 84bd 6fb3 4e3d
000001c0: 6a48 3f3d af75 c23d a484 7e3d dc29 ac3d
000001d0: b353 a83c 9709 eebd 14be 3ebd 0481 6fbc
000001e0: 13a3 cabd 91cb a8bd 0829 bebd 8689 f83c
000001f0: e9c1 e53c d2ef 12bd 39a5 5ebd dbbc 883d
00000200: bd88 91bb f25f 8b3d 321a e23d fb4f 11bb
00000210: 38a3 9e3d 641b d3bd f9b1 8dbd 5714 72bd
00000220: ab78 823d f6d9 b3bd a026 0f3d 86f9 db3c
00000230: 15e5 b0bc 1617 cfbd 13e1 a03d 348f 623c
00000240: 69a0 48bd b344 e2bd 85dd de3c 931f bf3a
00000250: e3ab 43bc 595f 4cbc 5f5d fcbd e173 d6bc
00000260: b892 3e3d d358 87bc d1d2 073d d013 6f3c
00000270: e0d1 b93b b445 f23d e31e ba3b f710 c43d
00000280: e0db 943c 6838 d83c 451a 82bd f8df 483d
00000290: cf31 a23d 6f9d ba3d b8b5 ef3c c861 c9bd
000002a0: c538 b93d fc98 e03d b81b af3d c9ec 89ba
000002b0: 8870 d53c 4512 d83d 1431 d43d deee dbbd
000002c0: 3679 b2bc 3493 dabd 0480 bcbc 317d cbbd
000002d0: deda 81bc 7c08 06be 6b7c c3bd 81f1 153c
000002e0: 43ff 643d 1d0b fabc 4b45 3dbd 3789 b03d
000002f0: 11f7 5a3c b773 7abd 3ccb 6bbd 5fe8 8f3d
00000300: 216c b03c 1bb9 82bc a5e4 3e3b c439 37bd
00000310: f72d dcbc a874 c23d 88e0 b53d 6bd5 b23c
00000320: 781f 933c da00 89bc f615 e3bd fc6b 8ebd
00000330: 340a 4d3d e430 053d fc22 cc3c c1b2 a1bd
00000340: a523 573d cf15 d13d f8c3 3a3d 13a9 393d
00000350: b2cb 063e 60dd 6c3a e9ee 69bd eca0 fdbd
00000360: d9ad 88bd 95cd 6cbc 884a 9c3d 518b 5bbd
00000370: 627b 283d f948 5d3d ebb2 45bc 4683 ccbd
00000380: 62ac 38bd 9067 eabd a6bc abbc 8ec8 ed3d
00000390: a768 e63b 5242 ce3c 2615 07bd 476a 44bd
000003a0: cd12 51bb dba4 e03d a81e 8cbd 3db8 d43c
000003b0: 2129 9cbd bd46 86bc c1bb f1bb edce 44bd
000003c0: 3220 d23d a99c acbb cb5d 54bd 8560 5ebd
000003d0: 8a00 963d 0259 9c3c 9645 7dbd 2de7 ec3d
000003e0: cdbd adbd 9922 383d 298d a1bc 6392 9cbc
000003f0: 48db a23d baba e2bc 803b 793c 930a 3bbb
0.09608831 0.05260241 -0.024406245 0.025352092 0.033614006 -0.07183153 0.016377136 0.08668031
-0.11747217 0.075317666 -0.050098415 0.11842911 0.008937039 -0.0046916986 0.1208064 0.052731995
0.085314445 0.04732015 0.016622502 -0.009345582 0.08705538 -0.0537014 0.045707934 0.07162429
-0.06791275 0.031761583 0.011780496 -0.11489092 -0.06409773 -0.06821057 -0.04860159 0.1092769
0.06274821 -0.10398223 -0.096266866 -0.004855412 0.010970902 -0.057378862 -0.00965483 0.061312117
0.049087856 -0.10269932 -0.039254002 0.0665591 0.06231515 -0.029791642 -0.063479334 -0.012049872
-0.0005378048 0.031472895 -0.06806818 -0.101370126 -0.07899128 -0.013994819 -0.0015945047 0.0021201756
-0.07722439 0.0925318 -0.04928206 -0.0024367392 -0.013211364 -0.02152358 -0.052055184 0.004412913
-0.036395267 0.12438231 -0.11471177 -0.06566028 -0.090842515 0.023207394 -0.025074331 0.09943673
0.08100802 0.009113895 0.024656339 0.09306768 0.05119721 0.05028985 -0.0770205 -0.09846979
0.078457884 -0.068659626 -0.098523416 -0.06404024 -0.074997924 -0.03733372 0.103276 -0.08081785
0.110813774 0.097512394 0.04811861 0.11659308 -0.05227665 -0.06686825 -0.07504978 0.054823942
-0.026921544 0.01732361 -0.10564589 0.11975989 -0.0033646163 -0.01758075 0.10444199 0.13515851
-0.13313009 0.010339762 -0.12126687 -0.09960424 0.0061602965 0.06680342 -0.06465024 0.05046409
0.04669992 0.094951026 0.062138215 0.084064215 0.020547723 -0.11622923 -0.04656799 -0.014618162
-0.09894385 -0.08241952 -0.0928517 0.030339014 0.028046565 -0.03587324 -0.054356787 0.06676646
-0.0044413493 0.068054095 0.110401526 -0.0022172916 0.07745975 -0.10307959 -0.06918711 -0.05910143
0.06370672 -0.08781807 0.034948945 0.02685238 -0.02159361 -0.10111825 0.078554295 0.013828088
-0.048981104 -0.110482596 0.027205238 0.0014581553 -0.011942836 -0.0124739045 -0.123224966 -0.026178302
0.04652664 -0.016521847 0.033160035 0.014592126 0.005670771 0.11829701 0.0056799515 0.09573548
0.01817125 0.026394084 -0.06352667 0.04904172 0.079196565 0.09112059 0.029261455 -0.098331034
0.09044031 0.109666795 0.08550209 -0.0010522838 0.026054636 0.1055036 0.103609234 -0.1073892
-0.021786314 -0.10672608 -0.023010261 -0.09935988 -0.015851434 -0.13089174 -0.09545215 0.009151817
0.0559075 -0.030522877 -0.04620866 0.08619922 0.013364569 -0.06114551 -0.057566866 0.07026743
0.021535935 -0.015957406 0.0029127982 -0.044732824 -0.026877386 0.09494907 0.088807166 0.021830281
0.017959341 -0.016724039 -0.11088173 -0.0695419 0.05005856 0.03251733 0.024919026 -0.07895423
0.052524228 0.10209238 0.045597047 0.045327257 0.13163641 0.0009035673 -0.057112608 -0.12384209
-0.06673784 -0.014453311 0.07631403 -0.05359966 0.041133292 0.05402467 -0.012066583 -0.09985976
-0.045086272 -0.11445534 -0.020963978 0.116105184 0.0070315185 0.025178108 -0.032979153 -0.047952916
-0.0031902075 0.10968944 -0.06841785 0.025966758 -0.07625032 -0.016391153 -0.0073771183 -0.048048902
0.10260047 -0.005267699 -0.05184726 -0.054291267 0.073243216 0.019085411 -0.06183394 0.11567531
-0.08483467 0.04495487 -0.01972063 -0.019112771 0.07951981 -0.027676929 0.01521194 -0.0028540238

net.3.bias f4 [32]
00000000: 7836 513c 2ba0 19bd b9bb f7bc 5291 f6bd
00000010: 3596 663d 411b 91bd ae7f e63d 653a e7bc
00000020: 3a4e 033d 6aa5 edbd ac44 03bd 6490 8d3d
00000030: 6dc0 1bbd c0cd dbbd eb3d 4bbd 87b2 88bd
00000040: e649 a63b 6080 5bbd 4843 333c e967 a3bd
00000050: 3289 13bd 82ad 8a3c d2ed 67bd 47a6 353d
00000060: 370f abbd 5a66 e7bc 1ff3 ca3d 874e 88bd
00000070: 8c83 c8bd ab81 87bd 725a 94bd 937a 24bd
0.012769334 -0.037506264 -0.03024088 -0.120394364 0.056295592 -0.070852764 0.11254822 -0.028226087
0.032057025 -0.11603816 -0.032047912 0.06912306 -0.03802531 -0.10732603 -0.049619596 -0.066746764
0.0050747273 -0.053589225 0.010941334 -0.07978804 -0.03601951 0.016928438 -0.056623287 0.044348028
-0.083525114 -0.028247047 0.09909653 -0.06655603 -0.097907156 -0.06616529 -0.072438136 -0.04015596

net.6.weight f4 [1, 32]
00000000: 6307 033e f881 6abd 56fc 0e3e 8750 e33d
00000010: d788 8d3d 743c a43d 1769 813d 22fc 06be
00000020: d40f d23d 64c9 97bd a606 14be 4392 083e
00000030: ca78 08be 8d2a 1cbc 4e4f 26be ee96 20be
00000040: 5deb a23d e310 223d 1bb6 003e e4e1 cdbd
00000050: 4d38 d3bd 7412 acbd b7f6 233e de1e f63d
00000060: ad21 2fbe 0021 f3bc f865 c4bd 03f1 073d
00000070: 066b 9abd d78b 08be e852 fdbd aecb 90bd
0.12795787 -0.057252854 0.13963446 0.11099344 0.06910866 0.08019343 0.063188724 -0.13182119
0.10256925 -0.07411459 -0.14455661 0.13337044 -0.13327327 -0.009531629 -0.1624119 -0.15682575
0.07955048 0.039566886 0.12569468 -0.10052851 -0.10313473 -0.08401957 0.16012083 0.12017606
-0.1710269 -0.029678822 -0.095897615 0.03318883 -0.07539944 -0.13334595 -0.12369329 -0.07070099
