trained_scorer/Cora_grace_scorer_model_v1.pt (torch, 177956 bytes, 5 tensors)

net.0.weight f4 [64, 647]
00000000: 56f6 123d 2063 923d eda8 a5bc ed29 703d
00000010: eb70 d73c cd89 023d 2cc2 ba3c 93f5 f43c
00000020: 1814 863c 4074 efbc 72e2 b53c cd2e 3b3d
00000030: ea74 583d ff46 3e3d 6fd4 9e3c 69e9 143d
00000040: f9a4 3d3d ff01 a23d 531d 8d3d 5c83 cabc
00000050: a3ea 30bc 4389 d9bb bf41 433d a2e1 883d
00000060: dfba 873c e0f0 cabc 26c6 1a3d 503f debc
00000070: d2ee 333d 763b e5bc f36d 873d 1b77 76bb
00000080: 537b b23c 9844 2c3c f757 3bbc 3013 263d
00000090: 16ce 113d 5610 593d fcb0 853d 3080 cabc
000000a0: d457 bf3c 6aa7 a93d fbec 833d 11a0 9b3d
000000b0: 4b58 b23d d6ed b5bc 9ba5 173c 864a e0bb
000000c0: 8671 183c f173 7b3d 154a 34bc d1fc fe3c
000000d0: 6af6 2a3b 0c3e 443d 769c 4d3c de0f f2bc
000000e0: 3ece 9bbc 474f b53b eebd ac3d fc55 0cbd
000000f0: 936b ebbb 57de 5ebb ec03 943c e97d fb3c
00000100: ff46 a7bc c7ea 06bc 08ea af3d 9fea 103c
00000110: 4c50 00bd 9af6 193d a52e 1d3d 2735 7d3b
00000120: 9e6f 263c b475 c8bc e38b 09bd 496d 3abc
00000130: 6ac9 cfbc e196 393d 14dc 2b3d 85fe 7c3d
00000140: 6291 a43c e95f a33c 7268 453d 06cb 4abd
00000150: 7633 a73c 1146 443c f3b0 5f3d 9be5 9fbc
00000160: 8110 ea3b 0ef9 883d e7e9 243c e6eb bebc
00000170: 75a2 2b3d ff8d 593d 33f2 763b c0d5 d3bb
00000180: d2dc 3c3d 7d6e 44bc 2d55 c83c 3db5 7eba
00000190: c237 683c 1308 cd3c bb05 c33c 373e 01bd
000001a0: a614 ae3c aab1 0dbd 5c7b 39bd fd1e b4bc
000001b0: d030 8e3b 76b6 9bbc bb9f 853d d91a 0bbd
000001c0: 7fa2 c03d b6d9 01bd 16ad b5bc 20ac b13c
000001d0: 1eba 81bc 9ef4 ca3c 04dc 94bb ad76 27bd
000001e0: 67d0 383d d0fa 823c 9bc6 07bd 825a d0bb
000001f0: e470 a4bc c5b2 c8bc 0073 5d3d 90cc 4fbd
00000200: 68fd 5b3d c53f e03b c4b6 273d d120 003d
00000210: f7f4 12bd c13c aa3d eefb e23c 3205 8b3c
00000220: ef14 2dbc 59b2 20bc 0f4b 72bc 9dd7 8b3d
00000230: f711 393d 90b0 a9bc da05 753c d0e5 1c3d
00000240: 5243 3c3d 388f 193d 97bf 5a3d 76b4 ee3c
00000250: 1de4 9a3d e14b 40bd d722 663d 9e9c 0c3d
00000260: 2161 243d 3531 2ebd 0776 a13d 200a c1bc
00000270: 4032 2c3d 00f2 693d d472 a63d 3d0c babc
00000280: af9b e53c 1251 113d 1a4e 08bc c034 a9bc
00000290: 91de 2c3d 19e7 1eba 86cb 293d acf0 af3c
000002a0: 4a95 80bc a491 913c 1eed c83b 9f46 363d
000002b0: 50d8 803d 9043 70bb 405a 0c3c 178d 35bc
000002c0: 9697 b3bc 8ad5 ba3d 737b 483d 5fcf a0bc
000002d0: 7a19 233d 0c88 723d a5df fb3a ae18 17bd
000002e0: 5ce2 adbc 78d4 083c e6dc 873d 3738 953b
000002f0: 0a38 44bc 93bc 5c3d a41f df3c d13d 74ba
00000300: 6e71 9ebc 7087 743d f1d7 303d 4a00 0d3d
00000310: bcb7 0f3d 663d 4b3d 018f 453d e449 dd3c
00000320: f1a0 38bd 5446 df3b a555 babc 5644 87bb
00000330: 4a72 52ba ddae a23c 5ef7 d93b d795 97bc
00000340: 9dfa e73c 8f8c 643d a82f 563d 8cca a33c
00000350: d929 703b 45c9 e1bc c4e0 b93c 66fa 793d
00000360: eae6 953d ec25 0f3c 448b 983c b4db a7bc
00000370: d8fe 013d b792 783d ca77 75bc cea4 733c
00000380: 4fe0 13bd 9ed0 af3c c3db 723d b42b 4c3d
00000390: e0c8 fc3b 76f5 2bbd d7a4 27bc 4010 1e3d
000003a0: a879 9f3c e981 3e3d 9101 083d 0c47 423d
000003b0: 3d7e 863c e089 afbc 8d0c 11bd 2cfe 3bbd
000003c0: 2b16 af3c c68c cabb 9d09 59bb cf43 13bc
000003d0: 108e 45bb 8779 9cbb dabd 813c 2cdd 28bc
000003e0: d794 ba3c 6d27 e43c 2bb0 c5bc 434c e83b
000003f0: ca35 1c3d 4226 523d e8cc 283d 9a38 a0bc
0.035879456 0.07147813 -0.020222152 0.058633734 0.02629896 0.0318697 0.022797666 0.029902255
0.016367003 -0.029230237 0.022202704 0.04569893 0.052845873 0.046454426 0.019388406 0.03635541
0.04629991 0.07910537 0.06890359 -0.02472084 -0.010798129 -0.0066386773 0.047670122 0.06683661
0.0165686 -0.024773061 0.037786625 -0.0271298 0.04392893 -0.027982455 0.06612768 -0.0037607613
0.021787321 0.010514401 -0.011434547 0.040545642 0.03559693 0.052994095 0.06527898 -0.024719328
0.02335731 0.08283885 0.06441685 0.075988896 0.08708247 -0.022208136 0.009255792 -0.0068448214
0.00930441 0.061389867 -0.011003991 0.031126412 0.0026086816 0.047910735 0.01254951 -0.029548582
-0.019019242 0.0055331322 0.08434664 -0.03426169 -0.0071844547 -0.0034007037 0.018068276 0.030699687
-0.020419596 -0.008234686 0.0858956 0.0088450005 -0.031326577 0.037588693 0.03837456 0.0038636418
0.010158448 -0.024470188 -0.033580672 -0.011378595 -0.025364596 0.045309905 0.04195793 0.061766166
0.020088855 0.019943194 0.04819531 -0.049510024 0.02041028 0.011979596 0.05461211 -0.019518664
0.0071430807 0.066881284 0.010065532 -0.023305845 0.041902978 0.053113934 0.0037680983 -0.00646469
0.04610903 -0.011989233 0.024454677 -0.00097163377 0.01417345 0.025028264 0.023806443 -0.031553473
0.02125008 -0.03459326 -0.04528366 -0.021987433 0.004339315 -0.019007903 0.06524607 -0.03396115
0.09405994 -0.031701766 -0.02217726 0.02168852 -0.015835818 0.024774846 -0.0045428295 -0.040884662
0.045120623 0.015988737 -0.03314839 -0.0063584456 -0.020073362 -0.024499306 0.05406475 -0.050732195
0.053708464 0.0068435394 0.040945783 0.031281296 -0.035878148 0.08312369 0.02770802 0.01697025
-0.010564073 -0.009808146 -0.014788403 0.06828234 0.04518315 -0.020714074 0.014955008 0.038305104
0.04596264 0.0374901 0.05340537 0.029138785 0.075630404 -0.046947364 0.05618557 0.03432905
0.04013169 -0.042527396 0.0788384 -0.023564398 0.04204011 0.057115555 0.081273705 -0.022710914
0.028028337 0.035477705 -0.008319402 -0.020655036 0.042204443 -0.0006061658 0.04145386 0.021477066
-0.015696187 0.017769642 0.006131782 0.044500943 0.06291258 -0.0036661364 0.008566439 -0.011081002
-0.021922868 0.091227606 0.048945855 -0.019630132 0.03981922 0.059211776 0.0019216432 -0.03688877
-0.0212261 0.008351438 0.0663393 0.0045538205 -0.011976251 0.053890776 0.027236767 -0.00093170727
-0.019341197 0.059699476 0.043174688 0.034424104 0.035087332 0.0496191 0.048232082 0.027012773
-0.04507536 0.0068138037 -0.022745917 -0.0041280193 -0.00080278947 0.019858772 0.006651803 -0.018504066
0.028317744 0.05579811 0.052291542 0.019994043 0.0036646037 -0.027561793 0.022690184 0.061029814
0.07319434 0.008737069 0.018621095 -0.020490505 0.03173718 0.060686793 -0.014982173 0.0148708355
-0.03610259 0.021461781 0.059291612 0.049846366 0.007714376 -0.041982137 -0.010232172 0.038589716
0.01946719 0.04651061 0.03320462 0.047431037 0.016417617 -0.021428049 -0.03541236 -0.045896694
0.021372875 -0.0061813323 -0.0033117302 -0.008988335 -0.003014449 -0.0047752294 0.015837599 -0.010306638
0.02277605 0.02785083 -0.024131855 0.007089169 0.038137235 0.051306017 0.04121104 -0.01955824

net.0.bias f4 [64]
00000000: e1cf ef3d afdf 0e3d 43c7 81bc 5e65 14bd
00000010: 93c3 f9bb b7c1 51bd c556 ba3d de08 14bc
00000020: 5ae4 e5bc 889d e1bc df76 da3d 2489 bd3d
00000030: 0a5a cebd a7d6 9ebc 83fa c43d cc6c 95bd
00000040: 3679 55bd 5552 8fbc f8d7 cc3d 18f4 13bc
00000050: 9418 d53d 9673 33bd 0868 c3bd 823a 72bd
00000060: ab8c 9b3d f310 d33d 4239 c53d 5799 fc3d
00000070: 2f66 3a3c ed84 ba3d bf62 1fbd 5975 28bc
00000080: 65f9 a5b8 eff8 80bb c467 70bd 9824 f93d
00000090: 53c4 a13d 7ed0 c0bc 5005 8cbc 3c95 30bd
000000a0: 60d1 423d 2f6c c53a a2bd f33b 129e cb3d
000000b0: b0f7 ca3d 23f3 243d ee58 063c d01f 7dbd
000000c0: 7413 55bd 9240 15bd 9632 00bd 2a83 79bd
000000d0: 17da ac3b 9963 86bd ea71 73bd e727 5e3d
000000e0: 57d8 acbc 6b92 debc 5688 c33c 0671 45bd
000000f0: 8724 7bbd 9e75 85bd 868b 77bc e180 fe3d
0.11709572 0.03488129 -0.015842086 -0.036229484 -0.007622191 -0.05121013 0.09098581 -0.009035317
-0.028062988 -0.027540937 0.10667204 0.09254673 -0.10075767 -0.019389464 0.09618094 -0.07296142
-0.05211755 -0.017495314 0.1000213 -0.009030364 0.104050785 -0.043811403 -0.09541327 -0.05913783
0.0759519 0.10305967 0.09630062 0.12333935 0.0113769015 0.09107385 -0.03891253 -0.010281884
-7.9142665e-05 -0.003935925 -0.05869271 0.12165183 0.07898774 -0.023536917 -0.017092377 -0.04311107
0.047562957 0.0015062148 0.0074383775 0.09942259 0.09910524 0.040270936 0.008199913 -0.061797917
-0.052020505 -0.036438532 -0.031298243 -0.060916103 0.005275022 -0.065619655 -0.05943481 0.054237273
-0.021099253 -0.027169427 0.023868721 -0.04820349 -0.061314132 -0.06516574 -0.015108949 0.124269255

net.3.weight f4 [32, 64]
00000000: e450 1d3e bb91 723d 08e4 a6bc 4482 0438
00000010: 44de 103d 35d9 acbd c23a 093d 5cfe 6e3d
00000020: 3e1c f3bd 9162 693d 134e 883c 070c 293e
00000030: 13b4 7dbc 39b4 55bc f6b5 323e 80ae b63c
00000040: 0cda 863d 7bb9 113d 908c 233d 2e0f a03c
00000050: 3ca4 283e b9a9 41bd 8f94 1b3d 8697 8d3c
00000060: f858 113d 43f8 d13d 75c0 fb3d 9706 1ebd
00000070: fce6 92bd 50c3 a23b 49db a1bd 87a5 783d
00000080: 68a7 453d bef0 9cbb 7705 f1bd 9564 8b3d
00000090: 96e4 5c3d 7bf4 a1bd a634 e2bc 946c 043d
000000a0: 3829 c13d 3acb a1bd 14be d6bc 5c37 0b3e
000000b0: f2e4 9a3d 4e88 afbb d8bd a5bc 3b92 88bc
000000c0: 1503 9abc d8eb 823a 65ae a9bd 8294 ecbd
000000d0: 8276 91bd bef5 11bd d1b4 88bc 92eb d93c
000000e0: 5f63 bbbd 6cd5 a53d 56f1 d1bc df46 b0bc
000000f0: 54c2 1fbd 13cb 5cbd 2c0f 70bd 55d9 773d
00000100: 004b 02be e826 083e 5ced 8abd 3a00 00be
00000110: 00cb 14be a82d 2d3d b2db 80bd dbb4 c43d
00000120: 5c50 213d 4447 403d e887 76bd 59b1 cc3c
00000130: 6a78 a93c 6253 8a3d 1cc3 02be 8d2f 1dbe
00000140: b427 093d 9ba0 05be 3e6f 19be 83e3 abbd
00000150: 9d70 06be 839c 04be 6428 b63c a625 2b3c
00000160: e9b9 1b3d e39c 0bbd d44a 2fbc 6a92 323d
00000170: 2a13 21be 6d1d f1bd 2f82 04bd 3bc9 2c3e
00000180: 3868 babb d1f1 c1bd 5521 17be 4b4d d73c
00000190: 4633 99bd a7ee 953d bb36 0a3e 931c 533e
000001a0: 6da6 0bbe b433 313d dc44 04be ccf2 0abe
000001b0: e1d4 3ebd bbe4 b83d a9b6 c3bd 17c2 ec3d
000001c0: 4f5e 923d 32ba bc3d 6d92 063e f6e2 353e
000001d0: c39a 853d c8ee c4bd 9e59 c6bd 1897 d0bd
000001e0: 749c a5bd 7d6e 0bbe cc0b e3bd 0842 2f3d
000001f0: 9980 01bd d27c b5bd ba2b c1bc b5fe d1bc
00000200: f29b 5a3d 8143 9c3d ea9e 9d3d e989 02bc
00000210: d0a0 933d 43e4 e5bd 7be2 0abd e2ea b5bd
00000220: 9c6e a03d 8a94 c5bd 796b 683d 38d1 803d
00000230: f9c8 33bd b1cd 03be 5548 fe3d 734f 0f3c
00000240: 0fe2 7dbd 750a d9bd 0226 ed3b 10bf d63c
00000250: 9f79 6e3d 8b41 c73b a3f9 f0bd ca63 9fbd
00000260: 4ffe 1f3e 25eb c83c ea4b b33d 02ed 353d
00000270: fbef 74bc 3c60 2e3e eaa4 09bd 0272 823d
00000280: 81d0 6d3b 9f80 de3d c974 3dbd 4daa c43d
00000290: 1b33 b03d d35f 6f3d 85c2 d4bb 456a 06be
000002a0: dcea 003e 16ed d33d 8fa7 b83d 655a 6e3d
000002b0: ed3e c63c 5a64 013e 5929 1c3e 22c2 10be
000002c0: 2ea9 4ebd e53c 18be 13a8 4ebc 7560 bcbd
000002d0: 12a2 9bbc 0429 35be faa4 bdbd ed43 553c
000002e0: 58bd 223d 9d14 4ebc 3a42 69bc 203e 533d
000002f0: e025 5e3a 01ba 9cbd d78c adbd e64c ef3d
00000300: f327 553d bcf7 bd3c a9ec 113d 82cc 97bd
00000310: d0ff d3bc e92e b33d 0549 173e 368b 203c
00000320: ff3a 663a 3194 edbc 8bb5 79bd 198c 24bd
00000330: d91a 7c3c 4035 b33c 84cb 943d 8f81 01be
00000340: bac5 0b3d 0d3c af3d f391 cd3d 3a78 6b3d
00000350: b058 553e dd79 81bc a57f 93bd 15d8 28be
00000360: 9288 1b3d c405 c43d 9805 203e 70fc a7bc
00000370: abf8 d63c e953 e43d c784 15bd 243e 14be
00000380: 8b55 30bd e030 43bd 4c36 ecbc 03da 473e
00000390: 082b 8e3c e77c c0bb 3486 2dbd c3b2 a4bd
000003a0: 205a 6a3c ff10 fb3d 2921 9abd 76ef bb3d
000003b0: abe5 89bd 5867 17ba 6bb8 6f39 64a5 78bd
000003c0: 0302 c03d 373a cfbc 3dc9 90bd 8d75 c4bd
000003d0: 5498 bb3d e987 a83b 36c3 99bd 20ae 373e
000003e0: 9f13 c7bd ca0b bc3b 1af5 61bc 5dc0 eebc
000003f0: 8cbf 6a3d cf1d 89bd 4f25 8d3b 51f5 363d
0.15362889 0.05922101 -0.020372406 3.159257e-05 0.03536822 -0.084398665 0.0335033 0.058348045
-0.11870621 0.056978766 0.016638791 0.16508494 -0.015484828 -0.013043457 0.17452225 0.022300005
0.06584558 0.03557728 0.039928973 0.019538488 0.164689 -0.047281 0.037983473 0.017284166
0.035485238 0.1025243 0.12292568 -0.038580503 -0.07172963 0.0049671307 -0.079031534 0.060704734
0.048255354 -0.004789441 -0.117686205 0.06806294 0.053928934 -0.07907959 -0.027612995 0.03233011
0.0943169 -0.079000905 -0.026213683 0.13595337 0.07563199 -0.005356825 -0.020232126 -0.01667129
-0.018800298 0.00099885 -0.08285216 -0.11551763 -0.07102682 -0.03563475 -0.016687782 0.026601586
-0.09149813 0.080973476 -0.025627773 -0.021518169 -0.039003685 -0.053904604 -0.05860822 0.06051
-0.12723923 0.13296092 -0.06783554 -0.12500086 -0.14530563 0.04227987 -0.062919036 0.09604808
0.039383277 0.046942964 -0.060188204 0.02498691 0.0206873 0.06754185 -0.12769741 -0.1535017
0.03348513 -0.13049547 -0.14983842 -0.08393004 -0.13128896 -0.1295033 0.022236057 0.010445988
0.038019095 -0.034085166 -0.010698993 0.043596663 -0.15729967 -0.11773191 -0.032350715 0.16873638
-0.0056886934 -0.09469951 -0.14758809 0.026281973 -0.07480483 0.0732091 0.1349744 0.20616369
-0.13637705 0.0432622 -0.12916893 -0.13569182 -0.046589736 0.09028002 -0.09556324 0.11560457
0.07146894 0.092152014 0.13141795 0.1776236 0.06523659 -0.096158564 -0.09685062 -0.10185069
-0.08086482 -0.13616367 -0.110862345 0.04278758 -0.03161678 -0.08861698 -0.02358042 -0.02563415
0.053371377 0.07630063 0.07696326 -0.007967451 0.07208407 -0.11225178 -0.033907395 -0.08882691
0.07833597 -0.09647472 0.05674312 0.06289905 -0.043892834 -0.12871434 0.1241614 0.0087469695
-0.061983164 -0.10597698 0.007237197 0.026214153 0.058221456 0.0060808114 -0.117663644 -0.07782705
0.15624355 0.024526188 0.08754714 0.04441548 -0.014949794 0.17028898 -0.03360454 0.063694015
0.0036287608 0.10864376 -0.046253953 0.09602795 0.086034976 0.058440994 -0.006492915 -0.13126476
0.12589592 0.10347955 0.09016334 0.058191676 0.024199927 0.12635937 0.15250148 -0.14136556
-0.05045431 -0.1486698 -0.012613314 -0.09198085 -0.01899818 -0.17691427 -0.092599824 0.013016683
0.039731354 -0.012578157 -0.014236981 0.05157292 0.0008474272 -0.07652665 -0.08474129 0.11684589
0.05204005 0.023189418 0.035626087 -0.07412054 -0.025878817 0.08749182 0.14773948 0.0097988155
0.0008782595 -0.029001327 -0.06096415 -0.04017267 0.01538726 0.021875978 0.0726538 -0.12647079
0.034124114 0.08556376 0.10037603 0.057487704 0.20834613 -0.01580518 -0.07202081 -0.16488679
0.03797204 0.09571412 0.15627134 -0.020506114 0.026241621 0.11148817 -0.03650358 -0.1447683
-0.04305033 -0.047654033 -0.028834485 0.19516759 0.017354503 -0.0058742645 -0.042364314 -0.080419086
0.014303714 0.12259101 -0.07525856 0.09176533 -0.06733259 -0.0005775592 0.00022861517 -0.060704604
0.09375384 -0.025296314 -0.07069633 -0.095927335 0.09159914 0.005143155 -0.07507937 0.17937517
-0.09720539 0.00573871 -0.013791347 -0.02914446 0.05731158 -0.06695139 0.004307426 0.044667546

net.3.bias f4 [32]
00000000: 9e06 983d 4666 c13c 637f 593d c7dc 28bc
00000010: a18c 113e a052 5a3d 5457 293e bce7 323d
00000020: 919f e33d 3172 a4bc 586c fb3c b819 033e
00000030: 4c60 873d 13ec 3f3b d5a1 983c 7567 873c
00000040: 7281 c33d c40c 5d3d b9d5 9f3d 855a 6f3c
00000050: 7618 8a3d a0db cf3d 058e 2a3d c560 f43d
00000060: e5cc 153c 063b 993d dabe ea3d ee16 5f3d
00000070: 7864 42bb 0b89 203d 7352 11ba 68d7 6b3d
0.07423137 0.023608338 0.0531 -0.010306544 0.14213802 0.053301454 0.1653722 0.04367803
0.11114419 -0.020073982 0.03069131 0.1280278 0.06610164 0.0029284998 0.018631855 0.016528824
0.09546174 0.053967252 0.07804436 0.014608984 0.06742947 0.10149312 0.041639347 0.1193252
0.009143089 0.07481961 0.11462183 0.054465227 -0.0029661935 0.039193194 -0.0005543597 0.057578474

net.6.weight f4 [1, 32]
00000000: 3bdd 203e c222 03be f5f2 493e c3f0 313e
00000010: 8e84 0e3e 4f3d 183e 174a 0b3e 1ff2 6abe
00000020: 21bc 2a3e ab9b dcbd 25c7 59be 4154 413e
00000030: e90f 58be 8e01 b53d c2b6 74be 7978 5abe
00000040: 80b2 2b3e 36d9 de3d 1169 203e 6b9d 12be
00000050: 3bf4 1cbe 670e 01be f7b4 5a3e d0b7 223e
00000060: aa3c 5bbe cd6d 8bbd c3ff 24be 501a d43d
00000070: f82e 00be 887c 4ebe 2034 3abe c5fa 9bbd
0.15709393 -0.12806228 0.19721587 0.17377 0.13917753 0.14867137 0.13602482 -0.22943924
0.16673328 -0.10771879 -0.21267374 0.18879797 -0.21099819 0.08838187 -0.23897842 -0.21335019
0.16767311 0.108812734 0.1566508 -0.14317863 -0.15327542 -0.1260315 0.21358095 0.15890431
-0.2140986 -0.06808052 -0.1611319 0.10356581 -0.12517917 -0.20164692 -0.18183947 -0.0761619
