trained_scorer/Cora_greet_scorer_model_v1.pt (torch, 341796 bytes, 5 tensors)

net.0.weight f4 [64, 1287]
0	0x3c754fb4	0.014972616
1	0x3cc259b5	0.023724416
2	0xbca70397	-0.020387454
3	0x3c78728a	0.015164027
4	0xbc7948b9	-0.015215092
5	0xbc5cfc8a	-0.013487944
6	0xbcd70ce8	-0.026251271
7	0x3b1d99de	0.002404801
8	0x3c718dcd	0.014743281
9	0xbcb8e9ea	-0.022572476
10	0x3c3675ae	0.011136455
11	0x3c5f3c61	0.013625235
12	0x3cddd331	0.027078243
13	0xbbf50f4c	-0.00747863
14	0x3c03a7a9	0.008035579
15	0xbca11345	-0.019662509
16	0x3bf9c842	0.0076227495
17	0xba5eb95c	-0.00084962486
18	0xbca9f148	-0.020744935
19	0xbaeedf9e	-0.0018224602
20	0xbca862c1	-0.020554902
21	0xbbffc196	-0.0078050597
22	0xbc48d306	-0.012257343
23	0x3c2deabc	0.010615047
24	0x3c9eed77	0.019400341
25	0xbc900965	-0.017582605
26	0xbc7d7719	-0.01547029
27	0xbc8063c8	-0.01567258
28	0xbc92b582	-0.017908815
29	0xbd43645d	-0.047703136
30	0x3c8270e3	0.01592297
31	0xbd36c960	-0.04462564
32	0x3ca0ce4a	0.019629616
33	0x3b9a0c44	0.004701169
34	0xbc8ae8f8	-0.016956791
35	0x3ccc0824	0.024906226
36	0x3c9a3261	0.01882285
37	0x3c9250cc	0.017860793
38	0xbb97959f	-0.0046259905
39	0xbbe90887	-0.0071116122
40	0x3ba615fa	0.005068538
41	0xbc163e4f	-0.009170129
42	0xbaafdca5	-0.0013417198
43	0x3cb7313f	0.02236235
44	0x3c3d9d46	0.011573141
45	0xbace9380	-0.0015760511
46	0x3cce727d	0.025201077
47	0xb9cd2af5	-0.00039132652
48	0x3cecef85	0.028922806
49	0xbc1b21d3	-0.009468514
50	0xbcbef73c	-0.02331125
51	0xbcedc83a	-0.02902614
52	0xbd12544e	-0.03572493
53	0x3c54b34a	0.012982199
54	0xbc035ba3	-0.008017453
55	0x3b91dc05	0.004451277
56	0x3c597255	0.013271888
57	0xbc18c582	-0.009324433
58	0x3cd97e7e	0.026549574
59	0xbcc0e244	-0.023545392
60	0xbc4231db	-0.011852707
61	0xbcf94c88	-0.030432
62	0xbb96919e	-0.0045949956
63	0xbb840677	-0.004029091
64	0x3c1035ae	0.008801861
65	0xba814d35	-0.0009864928
66	0x3cdf28de	0.027241167
67	0xbcd1ece6	-0.025625657
68	0xbcd85ee0	-0.026412427
69	0xbd0570fd	-0.032578457
70	0x3d08c0c5	0.033386964
71	0x3c1b4dd8	0.009479009
72	0x3c945585	0.018107185
73	0xbd0154f2	-0.03157515
74	0xbcf8aa2d	-0.030354584
75	0xbcb52a17	-0.022114797
76	0xbc373b9b	-0.011183645
77	0x3c1cac0d	0.0095625045
78	0x3c2fabf7	0.010722152
79	0x3cb7098b	0.022343418
80	0xba3d6c3d	-0.00072259066
81	0xbc8e80cf	-0.017395405
82	0x3c92853d	0.017885799
83	0xbc1744b9	-0.009232693
84	0xb86beeea	-5.6250872e-05
85	0xbb46581b	-0.0030264917
86	0x3d0dbf67	0.034606364
87	0xbd352473	-0.044224214
88	0x3b9d582f	0.004801772
89	0xbc6c7fdc	-0.014434781
90	0x3be4dc51	0.0069842716
91	0xbc066d49	-0.008204767
92	0x3ca52733	0.020160293
93	0x3bd125a2	0.00638266
94	0xbcc09b46	-0.02351154
95	0xbccbeed0	-0.024894148
96	0x3b2eab69	0.0026652461
97	0xbc7b5a2b	-0.015341322
98	0x3c89a55c	0.016802482
99	0xbc2c1897	-0.01050391
100	0xbc46df0b	-0.0121381385
101	0xbaac2b65	-0.0013135491
102	0x3c2b1ca4	0.01044384
103	0xbd15558d	-0.03645854
104	0x3be9b3b3	0.0071320175
105	0xbcc37c52	-0.023862991
106	0xbcb1459b	-0.021639636
107	0xbc974f90	-0.018470556
108	0xbce64d07	-0.028112901
109	0xbc36e622	-0.011163266
110	0x3cc1f488	0.023676172
111	0xbbe16ff2	-0.0068798
112	0x3c0a3c89	0.008437284
113	0xbcc7f340	-0.024407983
114	0xbcd2dec5	-0.02574099
115	0xbc903de0	-0.01760763
116	0xbb4bbef9	-0.003108917
117	0xbcdb4283	-0.026765114
118	0xbca42e32	-0.020041559
119	0xbce61bc4	-0.028089412
120	0x3c257011	0.0100975195
121	0xbc6295d3	-0.013829666
122	0xbc94f872	-0.018184874
123	0xbc97c5bb	-0.018526902
124	0xbd07d360	-0.033160567
125	0xbce891fe	-0.028389927
126	0xbbebcfb4	-0.007196391
127	0xbcbec045	-0.02328504
128	0x3d059cec	0.032620355
129	0x3c885dcc	0.016646288
130	0x3bf1ca92	0.0073788846
131	0xbc4dfb6c	-0.012572151
132	0xbcae82ee	-0.021302667
133	0x3c1bc743	0.009507957
134	0xbc0c15cf	-0.008550121
135	0xb9bbe1e7	-0.0003583573
136	0xbcf5e73f	-0.030017493
137	0xbd42ef61	-0.04759157
138	0x3cf51328	0.029916361
139	0x3be165db	0.006878597
140	0x3af13e52	0.0018405414
141	0xbc82e53c	-0.015978448
142	0x3bd041a2	0.0063554803
143	0x3c1537e0	0.00910756
144	0xbc77a543	-0.015115085
145	0x3c34aaa9	0.011027017
146	0x3c3f9b72	0.011694776
147	0x3caedb5b	0.021344831
148	0x3b274fef	0.0025529822
149	0xbc865856	-0.016399544
150	0xbba4ac65	-0.005025434
151	0xbbc0c8d2	-0.0058833146
152	0xbcd444cd	-0.025911713
153	0xbcd425c1	-0.025896909
154	0x3d024448	0.0318034
155	0xbca66744	-0.020312913
156	0xbc1d24d5	-0.009591301
157	0x3c4b4e79	0.012408846
158	0x3b681a1a	0.0035415948
159	0xbc683afe	-0.014174221
160	0x3ce15e17	0.027510686
161	0x3ba6de82	0.005092443
162	0xba5feff2	-0.00085425295
163	0xbd0ccb69	-0.034373675
164	0x3d271099	0.040787313
165	0xbd097ec4	-0.03356816
166	0xbd251323	-0.040301453
167	0xba68684f	-0.0008865641
168	0x3c3a0ed4	0.011356074
169	0x3ae6939e	0.0017591601
170	0xbc2fcb31	-0.010729597
171	0xba38f6a0	-0.0007055793
172	0x3c1fb816	0.009748479
173	0xbbbfb47a	-0.005850372
174	0xbcd06a14	-0.025441207
175	0xbcbd1990	-0.023083478
176	0xbc9afb26	-0.018918585
177	0xbbb77695	-0.005598853
178	0x3c232769	0.009958127
179	0xbd1f32d1	-0.03886682
180	0xbc28ad41	-0.010295213
181	0x3c41cb3c	0.01182824
182	0x3c93c3a3	0.018037623
183	0xbce021e2	-0.027359907
184	0x3cf81eef	0.030288188
185	0x3cf73673	0.03017733
186	0x3c352f86	0.011058694
187	0xbc75cbab	-0.0150021715
188	0xbce181c4	-0.027527697
189	0x39f5cf40	0.00046884455
190	0xbc9d8395	-0.019227782
191	0x3bbcb247	0.005758557
192	0x3cec4731	0.02884254
193	0x3b8dd1db	0.0043279952
194	0xbcb0390b	-0.021511575
195	0xbc92b79d	-0.01790982
196	0x3cb04dc7	0.021521462
197	0x3c11f59e	0.008908657
198	0x3c6c96de	0.014440266
199	0xbaedcba9	-0.001814236
200	0xbc55c952	-0.013048487
201	0x38e44649	0.00010884979
202	0x3ca51b72	0.020154689
203	0xbbfdcffd	-0.0077457414
204	0xbc24ae6f	-0.010051354
205	0xbc58098a	-0.013185868
206	0xbd387092	-0.04502923
207	0xbd09ea7f	-0.0336709
208	0xbc3d217e	-0.01154363
209	0xbc5a8cda	-0.013339246
210	0x3c4beb86	0.01244629
211	0x3c3b7062	0.011440368
212	0xbcea8e4a	-0.028632302
213	0xbc93316a	-0.017967898
214	0x3c3d92f1	0.011570678
215	0x3d3f91c0	0.046769857
216	0x3c4bacb2	0.0124313105
217	0x3b705d80	0.0036676824
218	0x3cc47df4	0.02398584
219	0xbce2eab7	-0.027699811
220	0xbcd2b82b	-0.025722584
221	0x3d0b9d42	0.03408552
222	0xbcbbcfd4	-0.022926249
223	0xbcb04d42	-0.021521214
224	0xbc9f6789	-0.01945855
225	0x3c38519d	0.011249927
226	0x3d0b1849	0.033958707
227	0x3d081880	0.03322649
228	0xbc87e3ae	-0.016588058
229	0xbd0c7633	-0.03429241
230	0xbcd69a07	-0.026196493
231	0x39b5cf9f	0.000346777
232	0x3c25fe66	0.010131454
233	0x3c650b7f	0.013979792
234	0xbc3885fe	-0.011262415
235	0xbc238f30	-0.009982869
236	0x3cb2617e	0.021775004
237	0xbd0dff26	-0.034667157
238	0xbcdf1118	-0.02722983
239	0xbceebc59	-0.029142546
240	0x3c860ab8	0.016362533
241	0x3c24dc33	0.010062265
242	0xbbe9cb30	-0.0071348175
243	0xbc823091	-0.015892299
244	0xbc931da2	-0.017958466
245	0x3b7b07ef	0.003830429
246	0xbcf6dc86	-0.03013445
247	0x3cd012be	0.025399562
248	0xbbb4d258	-0.005518239
249	0x3cb918b8	0.022594795
250	0xbc98c126	-0.018646788
251	0xbcdc2708	-0.02687408
252	0x3b3207a6	0.0027165203
253	0xbd0a45ff	-0.03375816
254	0x3bd456f9	0.0064800945
255	0xbc55c7e4	-0.013048146

net.0.bias f4 [64]
0	0x3cdaacc0	0.026693702
1	0x3be52b3b	0.006993679
2	0x3b31e479	0.0027144237
3	0xbca02582	-0.019549135
4	0xbbe7ccd2	-0.007073977
5	0x3ce8efb9	0.028434621
6	0x3c83fa8e	0.016110685
7	0x3d27f877	0.04100844
8	0x3d996994	0.074908406
9	0x3ad20686	0.0016023673
10	0xbc099b81	-0.008398891
11	0xbcb2725c	-0.021783046
12	0x3d104473	0.03522153
13	0xbcc6c395	-0.024263183
14	0x3d5ddc48	0.054165155
15	0xbbd71013	-0.0065631955
16	0x3cfa3557	0.030543013
17	0xbcdf22f0	-0.02723834
18	0x3d2210c5	0.039566774
19	0x3d264847	0.040596273
20	0xbb17fe25	-0.0023192253
21	0xbbd01b46	-0.0063509075
22	0xbc4b5743	-0.0124109415
23	0xbc6ed2f9	-0.014576667
24	0xbb948907	-0.0045329365
25	0xbcd1ea9c	-0.025624566
26	0x3c1315f9	0.008977407
27	0x3d736625	0.059423584
28	0xbcabd078	-0.02097343
29	0x3d152fb0	0.03642243
30	0x3c90ca56	0.017674606
31	0x3c200060	0.009765714
32	0x3c82113e	0.015877362
33	0x3d412d7e	0.047162525
34	0x3c1ed319	0.009693884
35	0xbcf14a31	-0.029454323
36	0xbc903eb9	-0.017608033
37	0x3c965660	0.018351734
38	0x3b7e1f41	0.0038775953
39	0x3d483e2c	0.048887417
40	0x3d7f6740	0.062354326
41	0xbcb2ae4f	-0.021811632
42	0xbc33b1d1	-0.010967688
43	0xbc3ba0f6	-0.01145195
44	0x3d2fd09d	0.04292356
45	0xbd050250	-0.03247291
46	0x3cfbfc71	0.030760022
47	0xbb2323c3	-0.0024893142
48	0xbc8941b8	-0.01675497
49	0x3d405be7	0.046962645
50	0xbb8bc54e	-0.004265464
51	0x3cd26515	0.025682965
52	0xbb0068ec	-0.0019593788
53	0x3c853204	0.0162592
54	0x3d006c1d	0.031353105
55	0xbc191949	-0.009344407
56	0x3b9e0df3	0.00482344
57	0xbcf57d12	-0.029966865
58	0x3d891533	0.066934966
59	0xbc7c557d	-0.015401241
60	0x3ccd304b	0.025047442
61	0xbcbf741b	-0.023370793
62	0xbcaaf881	-0.020870449
63	0x3d0d2080	0.034454823

net.3.weight f4 [32, 64]
0	0xbb5d1ab8	-0.003373785
1	0x3d9b3fcb	0.07580527
2	0xbd2b33d5	-0.041797478
3	0xbe154254	-0.14576083
4	0xba0f5a93	-0.00054685137
5	0x3dcc2463	0.09967878
6	0xbd2c1e1a	-0.042020895
7	0x3e2e8059	0.17041148
8	0x3e54908f	0.2075827
9	0x3d70cba1	0.058787946
10	0x3d9c348f	0.07627212
11	0xbd6a0820	-0.057136655
12	0x3d5bc7e2	0.05365742
13	0xbd6adc6e	-0.057339124
14	0x3e000f5a	0.12505856
15	0x3cfafa53	0.030636942
16	0xbd1e7475	-0.03868528
17	0xbd97143f	-0.073769085
18	0x3e384180	0.17993736
19	0x3dc4b0cb	0.09604033
20	0xbb91bc6f	-0.004447512
21	0xbd901072	-0.07034387
22	0xbd87d7d0	-0.0663296
23	0x3d5e3f21	0.054259423
24	0x3d4c9b61	0.04995287
25	0xbd439949	-0.047753606
26	0xbdac54ca	-0.0841461
27	0xbd49e4c0	-0.04929042
28	0x3ca56dfb	0.020194044
29	0xbd568145	-0.052369375
30	0x3b73db5c	0.0037209606
31	0x3c284773	0.010270941
32	0x3e542c87	0.20720111
33	0xba0fdc58	-0.0005487851
34	0xbc9e8342	-0.019349698
35	0xbdf9419f	-0.12170719
36	0xbc5913a8	-0.013249315
37	0xbcb21032	-0.021736238
38	0x3da8d275	0.082432665
39	0x3dc3a385	0.09552673
40	0x3e13d17a	0.14435378
41	0xbdc73316	-0.09726541
42	0x3d2578b7	0.040398326
43	0xbe1334f6	-0.14375672
44	0x3cd7d1a0	0.026345074
45	0xbe0548cc	-0.13016051
46	0xbc02e4e8	-0.007989146
47	0x3e08d939	0.13364114
48	0xbe3f5da7	-0.1868807
49	0x3e33992b	0.17538898
50	0x3d956b7a	0.0729589
51	0x3c94f3f2	0.018182728
52	0x3d79836b	0.060916346
53	0xbd1f29ae	-0.03885811
54	0x3df3047b	0.11866089
55	0xbd9a4434	-0.0753254
56	0xbd7b0819	-0.06128702
57	0xbd46f42a	-0.048572697
58	0x3d89a061	0.06720043
59	0xbded543d	-0.11588333
60	0xbcac0b10	-0.021001369
61	0xbda5f2ec	-0.08102974
62	0x3cb1c3bc	0.021699779
63	0x3e349c81	0.17637827
64	0xbc14227b	-0.009041424
65	0x3ddbda1d	0.10734961
66	0xbc3ccdd2	-0.011523681
67	0xbdf913f2	-0.121620074
68	0x3e10e54d	0.14149971
69	0x3d586998	0.052835077
70	0x3d39489a	0.045235254
71	0x3bbe0a94	0.005799601
72	0x3ddc16e3	0.10746553
73	0x3c301b38	0.010748677
74	0x3d8b4313	0.06799903
75	0x3da242d0	0.079229
76	0x3e035846	0.12826642
77	0xbdeff769	-0.117171116
78	0x3e0d8269	0.13819279
79	0xbd7e258c	-0.062047526
80	0xbcc90d57	-0.024542494
81	0xbd821736	-0.063520834
82	0xbd69eda4	-0.057111397
83	0x3dd84d99	0.105616756
84	0x3dc82fae	0.09774719
85	0xbdad409c	-0.08459589
86	0xbd4a26c6	-0.049353383
87	0xbe25bfab	-0.16186397
88	0x3d55d977	0.052209344
89	0xbdf63d21	-0.12023378
90	0xbdf5b3b2	-0.11997165
91	0x3dddcb84	0.10829833
92	0x3ccf8af8	0.02533482
93	0xbdba5642	-0.090984836
94	0x3dc0b1f7	0.09408944
95	0xbcc2268d	-0.023700023
96	0x3e2213f5	0.15827926
97	0x3e150c6c	0.1455552
98	0xbdd34b4d	-0.10317097
99	0xbdf8a826	-0.12141447
100	0xbbdc4d1c	-0.0067230593
101	0x3cf2bc0b	0.029630681
102	0x3c85936f	0.016305653
103	0x3de68c0f	0.11257183
104	0x3d31a3a9	0.04336897
105	0xbd915c72	-0.07097711
106	0xbe0ec458	-0.13942087
107	0xbdab3f4c	-0.08361682
108	0x3d85d504	0.0653477
109	0xbd1ca66e	-0.038244657
110	0x3db8589f	0.09001278
111	0x3e002182	0.12512782
112	0xbe0fd86c	-0.14047402
113	0x3df448e4	0.11927965
114	0xbd8cc7e5	-0.06874064
115	0x3dcbacae	0.099450454
116	0xbc996632	-0.018725488
117	0x3deebba3	0.116568826
118	0x3e054d55	0.13017781
119	0x3d7fd7eb	0.062461775
120	0xbe13f266	-0.14447936
121	0xbdb01826	-0.08598356
122	0x3e0286cf	0.12746738
123	0x3b0dbba5	0.0021626737
124	0x3dceeff3	0.101043604
125	0xbc215e46	-0.009849137
126	0xbc64bea7	-0.013961471
127	0x3e154b46	0.14579496
128	0xbdfa792d	-0.12230144
129	0x3dc099b7	0.09404319
130	0xbd351fdf	-0.044219848
131	0x3d256135	0.040375907
132	0xbc77662d	-0.015100044
133	0x3d1fb555	0.03899129
134	0x3d907a65	0.07054595
135	0x3e30142f	0.171952
136	0x3e016d35	0.12639315
137	0xbd9d8ec8	-0.07693249
138	0xbe07a73b	-0.13247387
139	0xbd5044d0	-0.050846875
140	0xbccc6965	-0.0249526
141	0xbd8165b4	-0.063182265
142	0x38844f61	6.309036e-05
143	0x3d802546	0.06257109
144	0x3bd2869a	0.006424737
145	0xbd146575	-0.03622957
146	0x3e133df5	0.14379103
147	0x3e1b9b05	0.15195854
148	0x3df72e98	0.12069434
149	0xbd1f26af	-0.03885525
150	0xbbdec12d	-0.0067979307
151	0xbde016b1	-0.10941828
152	0xbe105a2f	-0.14096902
153	0xbd23ae7a	-0.039961316
154	0x3be4a647	0.0069778296
155	0x3b78aeeb	0.0037946056
156	0x3c669c14	0.014075298
157	0xbd302919	-0.043007944
158	0xbdb01918	-0.08598536
159	0x38bcd571	9.004295e-05
160	0xbd1c838f	-0.0382114
161	0xbc16be22	-0.009200605
162	0x3d41ab43	0.04728247
163	0xbd89283c	-0.06697127
164	0xbde3a5b5	-0.111155905
165	0xbdb14547	-0.08655792
166	0xbc99d669	-0.018778997
167	0x3dd0e37b	0.101996385
168	0x3e0cc47e	0.13746831
169	0x3ddecbd6	0.10878722
170	0xbd9c8719	-0.07642955
171	0x3d235ead	0.03988521
172	0x3c8b243a	0.016985048
173	0xbdf9d823	-0.12199428
174	0x3e0f57d5	0.13998349
175	0x3d0d6e68	0.03452912
176	0xbda3f936	-0.080065176
177	0x3ce9dd58	0.028547928
178	0xbd22ce59	-0.03974757
179	0x3e273e23	0.16332297
180	0xbaca3f9b	-0.0015430333
181	0xbd32462a	-0.043523945
182	0x3db52adb	0.08846065
183	0xbd2c2acc	-0.042033
184	0xbda575b8	-0.08079094
185	0xbc0d79f2	-0.008635031
186	0x3dd79db1	0.10528124
187	0x3db70901	0.08937264
188	0x3d81ecd6	0.06344001
189	0xbdb0dc4b	-0.086357675
190	0x3c293972	0.010328637
191	0xbdacfb87	-0.084464125
192	0x3cda8c32	0.026678178
193	0xbad965bf	-0.0016586109
194	0x3d997796	0.07493512
195	0x3d0424a9	0.032261524
196	0xbcfa112d	-0.030525768
197	0xbd7d87b4	-0.061896995
198	0x3dbbcb12	0.09169592
199	0x3d30e447	0.043186452
200	0xbe06a6c5	-0.13149555
201	0xbd9c066f	-0.076184146
202	0x3d843a08	0.06456381
203	0x3e15bb03	0.1462212
204	0xbe0dadaa	-0.13835779
205	0x3dbbf43a	0.09177442
206	0xbe22a9d5	-0.15885098
207	0xbc4e737d	-0.012600777
208	0xbcc121fa	-0.023575772
209	0x3ca6e31d	0.020371968
210	0xbdb272c8	-0.08713299
211	0xbd979e20	-0.07403207
212	0x3dae304b	0.08505305
213	0xbd88afb5	-0.066741385
214	0x3ddfe65d	0.1093261
215	0x3e456b31	0.19279172
216	0x3df1ae02	0.118007675
217	0xbd0f1ebe	-0.034941427
218	0x3db88e1f	0.090114824
219	0xbda4fe85	-0.08056358
220	0x3e16ef63	0.14739756
221	0x3e01a972	0.12662295
222	0xbc1843ba	-0.009293491
223	0x3d7a1629	0.06105629
224	0x3ceee125	0.029160092
225	0xbb5a33b9	-0.003329499
226	0x3df15440	0.117836475
227	0x3dfbde4c	0.12298259
228	0xbdd6fc9b	-0.104973994
229	0x3b980878	0.0046396814
230	0xbd5a6a0d	-0.053323794
231	0xbc0825e8	-0.008309819
232	0xbd7554e7	-0.059895422
233	0x3da5ae9c	0.08089945
234	0xbd1b2c82	-0.037884243
235	0xbd232eeb	-0.039839666
236	0x3ca362be	0.019944545
237	0x3dc4b2a6	0.09604387
238	0x3de1b0c3	0.11020043
239	0xbd2f19ef	-0.04274934
240	0x3e1b0f52	0.15142563
241	0x3cd9c99c	0.026585393
242	0x3c800f6a	0.01563235
243	0x3cd9d0e3	0.026588863
244	0x3d100ede	0.03517043
245	0x3c9d4e84	0.019202478
246	0x3d9180ca	0.07104643
247	0xbdf6fc8e	-0.1205989
248	0x3df19c83	0.1179743
249	0x3da051c7	0.07828098
250	0xbe1001a4	-0.14063126
251	0x3d308bec	0.04310219
252	0xbdf147d3	-0.117812775
253	0x3df140dc	0.11779949
254	0x3d9667da	0.07344027
255	0xbe247f82	-0.16064265

net.3.bias f4 [32]
0	0x3dc5a2e6	0.09650211
1	0x3dafcab0	0.085835814
2	0xbd4e6a8c	-0.05039458
3	0x3dbdf802	0.09275819
4	0x3cc9c9c0	0.024632335
5	0x3d85d3ab	0.06534513
6	0x3c6cc249	0.014450618
7	0xbcfdbace	-0.030972864
8	0xbbad4799	-0.005288076
9	0x3ddf79d1	0.109119065
10	0x3e063148	0.13104737
11	0xbd94493a	-0.07240529
12	0x3dcb4703	0.09925654
13	0x3db28f80	0.08718777
14	0x3cdae5d4	0.026720919
15	0xbd637034	-0.055526927
16	0xbd4cd05b	-0.05000339
17	0x3df76fae	0.12081848
18	0x3cb3b665	0.021937558
19	0x3e033139	0.12811746
20	0xbd390256	-0.045168243
21	0xbce845f4	-0.028353669
22	0xbd9c4722	-0.07630755
23	0x3e03fc77	0.12889276
24	0xbd4d36f8	-0.05010125
25	0xbd701770	-0.0586161
26	0x3d3587f0	0.044319093
27	0x3ce31b13	0.02772287
28	0xbdb4b4ff	-0.08823585
29	0x3d9b83c5	0.075934924
30	0xbb14131b	-0.0022594396
31	0x3d0f40fb	0.03497408

net.6.weight f4 [1, 32]
0	0x3de7ad39	0.113123365
1	0x3e62795f	0.22116612
2	0x3e3daa89	0.18522085
3	0xbd2df0ba	-0.042465903
4	0x3e19fe81	0.15038492
5	0xbe11117f	-0.1416683
6	0xbd55cc2a	-0.05219666
7	0xbe06ef8c	-0.13177317
8	0xbe004a4c	-0.12528342
9	0x3e068715	0.13137467
10	0xbdda9e3c	-0.10674712
11	0xbe30b201	-0.17255403
12	0xbe1d0dc4	-0.15337282
13	0x3e40fd5c	0.18846649
14	0x3e36d882	0.17856029
15	0x3e307f2a	0.17236009
16	0x3e323d23	0.17406134
17	0xbccd2ee1	-0.025046768
18	0xbd79b6a6	-0.060965203
19	0xbd3e91f1	-0.0465259
20	0x3d7700b6	0.060303412
21	0x3dd90e5f	0.10598444
22	0xbd1bb546	-0.038014673
23	0xbe489ddb	-0.19591467
24	0xbde33228	-0.11093551
25	0x3e2973a6	0.16548023
26	0x3e517039	0.20452966
27	0xbd6bcb7c	-0.057567105
28	0xbe1ed3d9	-0.15510501
29	0x3e66b8b1	0.22531392
30	0x3df1a094	0.11798206
31	0xbd8b6d76	-0.068079874
