trained_scorer/Cora_epagcl_gcn_scorer_model_100_epochs_s4_ex8.pt (torch, 342036 bytes, 5 tensors)

net.0.weight f4 [64, 1287]
0	0x3ca45384	0.020059355
1	0x3d0ebad7	0.034846153
2	0x3aee0bd0	0.0018161479
3	0x3cebef85	0.028800735
4	0x3ac93271	0.0015350116
5	0xbb78e65d	-0.0037979104
6	0xbc13d67b	-0.009023304
7	0x3cf712f2	0.030160401
8	0x3d2afe33	0.04174633
9	0xbc5479fc	-0.0129685365
10	0x3ce0c859	0.027439283
11	0x3bdfeadb	0.006833417
12	0x3c919691	0.017771991
13	0x3c1d5377	0.009602419
14	0x3cb88678	0.022525057
15	0x3c058546	0.008149451
16	0x3c9657c2	0.018352393
17	0x3bc2f442	0.005949528
18	0xbbc2937e	-0.0059379926
19	0x3bc99ad1	0.0061524888
20	0xba84bc78	-0.0010126969
21	0xbb4698c5	-0.003030346
22	0xbc633fe2	-0.013870211
23	0x3c9c7c6d	0.0191023
24	0xbc72fe10	-0.014831081
25	0xbc5a676b	-0.013330321
26	0xbb6f7371	-0.0036537314
27	0x3ac464a3	0.0014983605
28	0x3c383291	0.011242525
29	0xbb978e9c	-0.0046251547
30	0x3d207475	0.039173562
31	0xbce39630	-0.027781576
32	0x3d0ba829	0.034095917
33	0x3b5f4cdc	0.0034072911
34	0xbc0d9c67	-0.008643246
35	0x3cc3fc10	0.023923904
36	0x3a8728c0	0.0010311827
37	0x3cdfb653	0.027308619
38	0x3c92819b	0.017884066
39	0xbc463b57	-0.012099109
40	0x3babe093	0.005245277
41	0xbb0ba758	-0.0021309461
42	0x3c8e2359	0.01735084
43	0x3cba80b4	0.022766449
44	0x3cbcc73a	0.023044217
45	0xbc152808	-0.0091037825
46	0x3c77c42d	0.015122456
47	0x3caf1ed5	0.021377007
48	0x3cb0e8e8	0.021595433
49	0xbc593c63	-0.013259026
50	0xbbda85ae	-0.006668768
51	0xbc6e55ec	-0.014546853
52	0xbc43d3d8	-0.011952363
53	0x3d25d4a7	0.040486004
54	0x3c392783	0.011300924
55	0x3c17022c	0.009216826
56	0xba95cc32	-0.0011428653
57	0x3c43f51f	0.011960297
58	0x3d1f1628	0.03883949
59	0xbb91bd83	-0.0044476404
60	0x3c26e694	0.01018681
61	0xbc32e1dc	-0.010918107
62	0x3c2f8315	0.010712405
63	0x39e5b3cb	0.0004381224
64	0x3c31171a	0.0108087305
65	0x3ac7f5eb	0.0015255784
66	0x3ced7b8b	0.028989574
67	0xbc45cf35	-0.012073328
68	0xbb91c6b9	-0.0044487384
69	0xbc3d715b	-0.011562671
70	0x3d2ee5a0	0.042699456
71	0x3c3e4f52	0.011615591
72	0x3d177f93	0.0369869
73	0xbb55b743	-0.0032610453
74	0xbca584f7	-0.020205004
75	0xbcb5c734	-0.022189714
76	0xbc41211f	-0.011787682
77	0x3bfadeaa	0.007655938
78	0x3c832421	0.016008439
79	0x3cc46008	0.023971573
80	0xbc579022	-0.0131569225
81	0xbc8ed219	-0.017434167
82	0x3cc34b90	0.023839742
83	0xbb5fb8b6	-0.0034137196
84	0x3cc75a83	0.024335152
85	0x3c0a595b	0.008444156
86	0x3ce6aa92	0.028157506
87	0xbc915491	-0.01774052
88	0xbbc3eac3	-0.0059789135
89	0x3c1f4d77	0.009723059
90	0x3c4651b4	0.0121044405
91	0xbbe5de07	-0.007014993
92	0x3ca97a9a	0.020688344
93	0x3d107803	0.035270702
94	0xbc73035f	-0.014832347
95	0xbc748054	-0.014923174
96	0x3d0ec7d1	0.03485853
97	0xbbc869bb	-0.0061161197
98	0xbc0f6691	-0.008752481
99	0xbcd81b86	-0.026380312
100	0x3a68525c	0.000886237
101	0x3c133e98	0.0089870915
102	0x3b8d4807	0.004311565
103	0xbc496499	-0.012292051
104	0xbb1276df	-0.0022348685
105	0xbbd97b27	-0.0066369954
106	0xbcba820c	-0.02276709
107	0x3b6f016a	0.0036469349
108	0xbcb4fce7	-0.02209325
109	0xbc35f139	-0.011104875
110	0x3ce24c76	0.02762435
111	0x3b9b8c3d	0.0047469423
112	0x3c7fd704	0.015615229
113	0xbcd98a68	-0.026555255
114	0xbcb4e019	-0.022079514
115	0xbbca26eb	-0.00616919
116	0x399bc36e	0.0002970951
117	0xbc7c22ff	-0.015389203
118	0xbb97d330	-0.00463333
119	0xbc3ee331	-0.011650846
120	0x3b05b112	0.0020399732
121	0x3bea25e6	0.007145631
122	0x3bf96133	0.007610464
123	0xbc89a2ca	-0.016801257
124	0xbc074ee2	-0.008258553
125	0xbae8358e	-0.0017716156
126	0x3b28ee7b	0.002577691
127	0xbc154c87	-0.009112484
128	0x3d1c562f	0.03816813
129	0x3b20dd93	0.002454613
130	0x3d2ecbdd	0.042674888
131	0x3bf839b8	0.00757524
132	0xbc961735	-0.018321613
133	0x3cb8e20b	0.022568723
134	0x3b8336d5	0.004004339
135	0xbbc56aa1	-0.006024674
136	0xbc3acc06	-0.011401182
137	0xbc2ddb5e	-0.010611383
138	0x3cd26892	0.025684629
139	0xbb833a5c	-0.0040047597
140	0x3c670aa9	0.014101663
141	0xbc89dcc3	-0.0168289
142	0x3ccda41d	0.02510267
143	0xbc21dce8	-0.009879328
144	0xbb5ceee1	-0.003371172
145	0xbb210a5f	-0.0024572832
146	0x3c0b505c	0.008503046
147	0x3d0809d4	0.033212498
148	0x3cf92960	0.030415237
149	0xbc1f9a37	-0.0097413575
150	0x3c88bc79	0.016691433
151	0xbb64434c	-0.003483015
152	0xbbf94c65	-0.007607984
153	0xbcbb28ef	-0.022846667
154	0x3cbc27a8	0.022968128
155	0xbc1e72bf	-0.009670912
156	0x3c9f1c06	0.019422542
157	0x3bc8b3cc	0.006124949
158	0x3cb54956	0.022129696
159	0xbc2c59a2	-0.010519417
160	0x3cc0a475	0.02351592
161	0x3bb144ec	0.0054098275
162	0x3b3f728e	0.0029212567
163	0xbba0708e	-0.00489623
164	0x3c75db3b	0.015005882
165	0x3c367512	0.01113631
166	0xbc5356fd	-0.012899158
167	0x3d0283a8	0.03186384
168	0xbaba53ce	-0.001421565
169	0xbc2712f8	-0.010197394
170	0xbc3bbcd4	-0.011458594
171	0x3c17a46b	0.009255509
172	0x3ce1ad34	0.02754841
173	0xbba4d170	-0.0050298497
174	0xbc84be70	-0.016204089
175	0xbb4bc4f2	-0.003109273
176	0xbbd0246a	-0.006351997
177	0x3c2a0031	0.010376022
178	0x3cca1834	0.024669744
179	0xbcad9d55	-0.021193186
180	0x3bce48e4	0.0062953103
181	0x3cd5febc	0.026122443
182	0x3c53bbe4	0.012923215
183	0xbc41b412	-0.011822717
184	0x3cc1496d	0.023594582
185	0x3c7602fc	0.01501536
186	0x3c548245	0.012970512
187	0xbb7ebb30	-0.0038868897
188	0x3c39dda5	0.011344348
189	0x3b85c7d2	0.0040826583
190	0xbb590c58	-0.003311893
191	0xbbd57916	-0.0065146787
192	0x3cc0d89f	0.023540793
193	0x3cab38d6	0.020901125
194	0x3ab87c26	0.0014075085
195	0xbc464c24	-0.012103114
196	0x3aadf474	0.0013271705
197	0xbbbbcd20	-0.00573124
198	0x3bd34651	0.0064475914
199	0x3cb6a5f0	0.022295922
200	0xbc3839f4	-0.011244286
201	0xbb8816d5	-0.0041531124
202	0x3ce5c13d	0.028046245
203	0x3c862ff0	0.01638028
204	0xbc14488a	-0.009050498
205	0xbc6f8faa	-0.0146216545
206	0xbc03595c	-0.00801691
207	0xbc802bcd	-0.015645886
208	0xbbf2492a	-0.0073939757
209	0x3ccb466c	0.024813853
210	0x3ccbc191	0.024872573
211	0x3c660332	0.014038848
212	0xbc321b74	-0.010870803
213	0xbc20fae2	-0.00982544
214	0xba9717c3	-0.0011527467
215	0x3d10d6ac	0.035360977
216	0x3c234e75	0.009967436
217	0x3b330aa6	0.002731958
218	0x3c55a548	0.013039894
219	0x3ae38616	0.0017358686
220	0x3bf3c4f4	0.00743925
221	0x3cf4c2b3	0.029877996
222	0x3b03e5df	0.0020126028
223	0x3aa1bb54	0.0012339153
224	0xbc8a6e44	-0.016898282
225	0x3cc3abcb	0.023885628
226	0x3ca3a66c	0.019976817
227	0x3c7a2b04	0.015269045
228	0xbc0d032f	-0.008606716
229	0xbce2ee0c	-0.0277014
230	0xbcaec9a0	-0.021336377
231	0x3d2485c3	0.040166628
232	0x3b98970d	0.0046566785
233	0x3cba3cef	0.022734134
234	0x3c9d5921	0.019207539
235	0xbac5044d	-0.0015031189
236	0x399cde71	0.0002992037
237	0xbb280e33	-0.002564323
238	0xbc82d2d3	-0.01596967
239	0xbd083556	-0.03325399
240	0x3c97dfd8	0.018539354
241	0xb9a41b84	-0.00031301018
242	0xbbc66bf1	-0.006055348
243	0xbc72035c	-0.014771309
244	0x3b4b41c3	0.0031014539
245	0xbc12f922	-0.008970531
246	0xbb5725e3	-0.0032828979
247	0x3be0d610	0.0068614557
248	0xba74f572	-0.00093444355
249	0x3c3fdf6a	0.011710981
250	0x3a5ffaab	0.00085441273
251	0xbc98223e	-0.018571015
252	0x3c058506	0.008149391
253	0xbbbebc21	-0.0058207666
254	0xbbaf856e	-0.005356482
255	0xbce67975	-0.028134087

net.0.bias f4 [64]
0	0x3d0f7ce5	0.035031218
1	0xba4e971a	-0.0007880792
2	0x3c956000	0.018234253
3	0xbbe80f61	-0.0070819114
4	0xbcaa759a	-0.02080803
5	0xbbc41863	-0.0059843524
6	0x3c6c2bfb	0.014414783
7	0x3ba4ec2f	0.005033038
8	0x3d652019	0.055938814
9	0x3b8e0565	0.004334139
10	0xbc5b3af2	-0.013380753
11	0xbcd4905c	-0.025947742
12	0x3cbc3303	0.022973543
13	0x3b84183e	0.00403121
14	0x3d48a930	0.048989475
15	0xbbef071b	-0.007294548
16	0x3c77dbd5	0.015128096
17	0xbccdcb56	-0.025121372
18	0x3b10e44a	0.0022108727
19	0x3c429732	0.011876868
20	0xbce0b52b	-0.027430138
21	0xbb174e71	-0.0023087526
22	0xbb8a4a52	-0.0042202855
23	0x3c764f63	0.015033576
24	0xbb375e35	-0.0027979736
25	0xbcb4d117	-0.022072358
26	0x3c07a205	0.008278375
27	0x3d4cf7f1	0.050041143
28	0xbc2527e5	-0.010080312
29	0x3d180cab	0.037121456
30	0x3c91fc1a	0.017820407
31	0x3c873f1c	0.016509585
32	0x3c1b1ba3	0.009467038
33	0x3caeb1e7	0.021325065
34	0x3c1b7fad	0.0094908895
35	0xbcaa7458	-0.02080743
36	0xbb49d4d2	-0.0030797017
37	0x3cb946eb	0.022616824
38	0xbbc4e0fa	-0.0060082646
39	0x3d10703b	0.03526328
40	0x3d735dbb	0.05941556
41	0xbcdcb4e5	-0.026941726
42	0xbc25487e	-0.010088084
43	0x3c602baf	0.01368229
44	0x3d1bd391	0.038043562
45	0xbcdce956	-0.026966732
46	0x3cc5d51d	0.024149472
47	0x3c347e98	0.01101651
48	0xbc40f48c	-0.0117770545
49	0x3c8d3452	0.017236862
50	0x3bd5c0dd	0.0065232352
51	0xbccf2b08	-0.025289074
52	0x3cc5fee7	0.024169398
53	0x3c51638e	0.012780083
54	0x3cc86ad4	0.024465002
55	0xbb40d78b	-0.0029425349
56	0x3c21572b	0.009847443
57	0xbc134ea5	-0.008990918
58	0x3d6b5b06	0.057459854
59	0xbceb5661	-0.028727712
60	0x3ccfd49e	0.025369938
61	0x3bb39abb	0.005481092
62	0x3bcf751c	0.006331099
63	0x3ca2f8f9	0.01989411

net.3.weight f4 [32, 64]
0	0x3c26aa28	0.010172404
1	0x3d981fe6	0.07427959
2	0x3bfaff98	0.0076598637
3	0xbe0d18f4	-0.1377905
4	0xbcb68ce7	-0.022283984
5	0x3cd94932	0.02652416
6	0xbc9cf73e	-0.019160863
7	0x3dc4bfe7	0.09606915
8	0x3e3147d3	0.17312555
9	0x3d9bb41d	0.07602713
10	0x3dbfd5c9	0.09366948
11	0xbd10c43e	-0.0353434
12	0xbc13d553	-0.009023028
13	0xbd343a8c	-0.044001147
14	0x3d8fe45b	0.07025977
15	0x3cd7a3ab	0.02632316
16	0xbd95b498	-0.07309836
17	0xbd211546	-0.03932693
18	0x3e0e4634	0.13893968
19	0x3ccfee9c	0.025382333
20	0xbd8f528c	-0.069981664
21	0xbda84ca3	-0.08217742
22	0xbd8981fa	-0.06714244
23	0x3d941386	0.07230286
24	0x3d81d625	0.06339673
25	0xbd39f9d3	-0.045404267
26	0xbd682147	-0.05667236
27	0xbd908030	-0.070557
28	0x3da67005	0.08126835
29	0xbd937ce1	-0.07201553
30	0x3c07589c	0.008260872
31	0x3d01a207	0.031648662
32	0x3e2e02e7	0.16993295
33	0xbd961f67	-0.07330208
34	0xbc629e75	-0.013831724
35	0xbdd4b450	-0.103859544
36	0x3cb86cf0	0.022512883
37	0xbd6233b1	-0.055225078
38	0x3d902b50	0.07039511
39	0x3d849cc7	0.064752154
40	0x3e107735	0.14107974
41	0xbdb5eafe	-0.08882712
42	0x3d8414af	0.064492576
43	0xbe18a529	-0.14906754
44	0xbb84d434	-0.004053617
45	0xbdf1c941	-0.11805964
46	0xbd554246	-0.052065156
47	0x3e13e3c3	0.14442353
48	0xbe08217d	-0.13294025
49	0x3df9fe4c	0.122067064
50	0x3dc89e2c	0.09795794
51	0xbd32933f	-0.043597456
52	0x3d525806	0.051353477
53	0xbd21e178	-0.039521664
54	0x3dabc6a1	0.08387495
55	0xbd8ba134	-0.068178564
56	0x3cb13537	0.02163182
57	0x3bbb61c0	0.00571844
58	0x3cfcdf54	0.03086821
59	0xbdcc95a7	-0.099894814
60	0xbd343b43	-0.04400183
61	0xbd8c98ce	-0.06865083
62	0xbcaa33a7	-0.020776583
63	0x3e25f493	0.16206579
64	0xbd3b5f71	-0.045745317
65	0x3e0aceed	0.13555498
66	0x3c18df6a	0.00933061
67	0xbdfbd10d	-0.12295733
68	0x3e0ca032	0.13732985
69	0x3d1ad0e1	0.03779686
70	0x3d213972	0.039361425
71	0xbd103eaa	-0.03521601
72	0x3dedcf98	0.11611861
73	0x3c85fbbd	0.01635539
74	0x3d98f4f8	0.07468599
75	0x3dcaec12	0.09908308
76	0x3de2a3a7	0.110663705
77	0xbe00b130	-0.12567592
78	0x3e09d8ea	0.13461652
79	0xbda18429	-0.07886536
80	0xbcb14435	-0.021638969
81	0xbd195229	-0.03743187
82	0xbd8dac37	-0.06917613
83	0x3d9e3450	0.077248216
84	0x3db23220	0.08700967
85	0xbdf99c31	-0.12187994
86	0xbd81c554	-0.063364655
87	0xbe0ec2d3	-0.13941507
88	0x3d8812e2	0.066442266
89	0xbddacec2	-0.10683967
90	0xbddcd63b	-0.10783049
91	0x3df77238	0.120823324
92	0x3d01aba5	0.031657834
93	0xbdda8c53	-0.10671296
94	0x3dc36fe4	0.09542826
95	0xbc827186	-0.015923273
96	0x3e2f7af3	0.17136745
97	0x3ddedb06	0.10881619
98	0xbdab9f9a	-0.08380051
99	0xbdcdf1a3	-0.10055854
100	0xbca5196c	-0.020153724
101	0x3cc4de67	0.024031831
102	0xbb4d7e34	-0.003135574
103	0x3dc4d117	0.09610193
104	0x3d89ce11	0.06728757
105	0xbd7ee050	-0.06222564
106	0xbdf1880f	-0.11793529
107	0xbdea5508	-0.11442
108	0x3d92989c	0.07158014
109	0xbd819eb4	-0.06329098
110	0x3d9fc0e5	0.078004636
111	0x3e1719e6	0.14755973
112	0xbdf09d09	-0.11748702
113	0x3dcf3670	0.10117805
114	0xbda4879e	-0.080336794
115	0x3d97c413	0.07410445
116	0x3a91758a	0.0011097651
117	0x3e168a6e	0.14701244
118	0x3df5fc75	0.12011043
119	0x3d848657	0.06470936
120	0xbdc050be	-0.093904
121	0xbd0e646f	-0.03476375
122	0x3e0f8073	0.14013843
123	0x3c95f3ac	0.018304668
124	0x3df6e94f	0.12056219
125	0xbc067278	-0.008206002
126	0xbdb97613	-0.09055724
127	0x3e1e9187	0.15485202
128	0xbdf1bbe9	-0.11803419
129	0x3dc20efe	0.09475516
130	0xbc32678a	-0.010888943
131	0x3d1f8813	0.03894813
132	0xbce09b9c	-0.02741795
133	0xbc30bbbe	-0.010786949
134	0x3d8094c1	0.062783726
135	0x3dc94f57	0.09829586
136	0x3e00cbdf	0.1257777
137	0xbd7f4871	-0.062324945
138	0xbe08ee89	-0.13372244
139	0xbd0cd66b	-0.034384172
140	0xbd7edffd	-0.06222533
141	0xbd5ccc4d	-0.053905774
142	0xbc9afe92	-0.018920217
143	0x3d85ef9d	0.06539843
144	0x3c2acb38	0.010424428
145	0xbd27ca66	-0.040964507
146	0x3dd9b4d4	0.10630193
147	0x3db9eb62	0.09078099
148	0x3d876c93	0.06612506
149	0xbd4567ac	-0.048194572
150	0xbc1c51df	-0.009541004
151	0xbda1e8c9	-0.07905728
152	0xbe091666	-0.1338745
153	0xbcfd9eaf	-0.030959455
154	0xbbbce928	-0.005765099
155	0xbc7b6417	-0.0153436875
156	0x3c91272c	0.017718874
157	0xbd22ce10	-0.039747298
158	0xbdade1e5	-0.084903516
159	0x3c2cfca2	0.010558279
160	0xbd051382	-0.032489307
161	0xbd940249	-0.07226998
162	0x3d18bacc	0.03728752
163	0xbc76053b	-0.0150158955
164	0xbdacb2c5	-0.08432535
165	0xbdb7fb87	-0.08983522
166	0xbc5be62e	-0.013421578
167	0x3dad0470	0.08448112
168	0x3e0e5e64	0.13903195
169	0x3db86c07	0.090049796
170	0xbd6ce10c	-0.05783181
171	0x3c8a4fc6	0.016883742
172	0xbb7a4ff3	-0.0038194626
173	0xbdcbe6f4	-0.0995616
174	0x3ddd9479	0.108193345
175	0x3d38d828	0.045128018
176	0xbda9ba96	-0.082875416
177	0xbcac6660	-0.02104491
178	0xbd5e3f66	-0.05425968
179	0x3dfbe61c	0.12299749
180	0x3c17b64d	0.0092597725
181	0xbd1aaf2d	-0.037764717
182	0x3d24153d	0.040059317
183	0xbd3a450b	-0.045476
184	0xbd52098b	-0.051278632
185	0x3c8c4e3a	0.017127145
186	0x3daa98c8	0.08329922
187	0x3dbc6333	0.09198608
188	0x3d0c4d98	0.034253687
189	0xbd8947da	-0.06703158
190	0x3c322f83	0.0108755855
191	0xbdb036dc	-0.086042136
192	0x3c03129c	0.008000042
193	0xbb811e41	-0.003940374
194	0x3d2af922	0.041741498
195	0x3d2e5d80	0.042569637
196	0xbca41bd2	-0.020032797
197	0xbcc975bf	-0.024592279
198	0x3dcefcfc	0.10106847
199	0x3d8f0d92	0.0698501
200	0xbe09553c	-0.1341142
201	0xbd93f1d8	-0.072238624
202	0x3d800d26	0.06252508
203	0x3e04ca47	0.12967788
204	0xbe039c27	-0.12852536
205	0x3dbcb1e1	0.09213615
206	0xbe145234	-0.14484483
207	0xbca186ff	-0.019717691
208	0xbc84c997	-0.016209407
209	0x3cab9a52	0.02094761
210	0xbdc51efe	-0.09625052
211	0xbd62494c	-0.055245683
212	0x3de9c35e	0.114142165
213	0xbcd34d27	-0.025793625
214	0x3dc86bf6	0.09786217
215	0x3e03266a	0.12807623
216	0x3df780df	0.12085127
217	0xbd995041	-0.0748601
218	0x3d557071	0.052109186
219	0xbd9b510d	-0.075838186
220	0x3dee65b6	0.116404936
221	0x3d1d5469	0.038410578
222	0xbbf2b816	-0.0074071987
223	0x3d3ad17f	0.045609947
224	0x3ceb61a4	0.028733082
225	0x3d03847f	0.03210878
226	0x3e126355	0.14295705
227	0x3d58e0ac	0.05294864
228	0xbe04df1d	-0.12975736
229	0xbcf5b29f	-0.0299924
230	0xbd8a3721	-0.06748796
231	0xb9a692ec	-0.00031771453
232	0xbda02a03	-0.07820513
233	0x3dc48de5	0.09597377
234	0xbd3c8b9b	-0.046031576
235	0xbd03a085	-0.032135505
236	0x3d1765ef	0.036962446
237	0x3d83862d	0.064220764
238	0x3dcac4aa	0.09900792
239	0xbd76b282	-0.060228832
240	0x3ded5422	0.11588313
241	0x3d7fbf21	0.062438134
242	0xbc0f2350	-0.0087364465
243	0x3d50cf12	0.050978728
244	0xbd0f49f6	-0.034982644
245	0x3c1f1e52	0.009711819
246	0x3e015e1a	0.12633553
247	0xbdc1eb04	-0.09468654
248	0x3d3d7997	0.046258535
249	0x3d472fb5	0.04862948
250	0xbe082bcc	-0.13297957
251	0x3d1025a9	0.035192166
252	0xbddc623b	-0.107609235
253	0x3d7f9cc1	0.06240535
254	0x3e16d33c	0.14729017
255	0xbe1a1813	-0.15048246

net.3.bias f4 [32]
0	0x3d88f8cf	0.066880815
1	0x3db5e2b8	0.08881134
2	0xbdd1ed91	-0.1025039
3	0x3d9d8936	0.076921865
4	0xbb80fe4d	-0.003936565
5	0x3db4920d	0.088169195
6	0x3c72a6a3	0.014810237
7	0xbd0bedf3	-0.034162473
8	0x3b9f6154	0.0048638973
9	0x3ddc7c1d	0.1076586
10	0x3e08f4e4	0.13374668
11	0xbdb3193d	-0.08745048
12	0x3ddfc028	0.10925323
13	0x3da94a05	0.08266071
14	0x3cf55afa	0.029950608
15	0xbdcfc794	-0.101454884
16	0xbdf26ac7	-0.118367724
17	0x3df1fb01	0.11815453
18	0x3d25539c	0.04036294
19	0x3dd40ae5	0.103536405
20	0xbdeb72c3	-0.114964984
21	0xbdba06bc	-0.09083316
22	0xbda2d2e3	-0.0795038
23	0x3e093f65	0.1340309
24	0xbdc7896d	-0.09743009
25	0xbdac9af9	-0.08427996
26	0x3d57187b	0.05251358
27	0x3c0c0726	0.008546626
28	0xbd98c811	-0.07460035
29	0x3d761623	0.060079705
30	0xbd4065b9	-0.04697201
31	0xbcf4c575	-0.029879311

net.6.weight f4 [1, 32]
0	0x3d8eadf7	0.06966775
1	0x3e61058e	0.21974775
2	0x3df0e823	0.117630266
3	0xbce59720	-0.028026164
4	0x3dfd7a82	0.12376882
5	0xbe05837a	-0.13038436
6	0xbcad3ccf	-0.02114716
7	0xbdd755b2	-0.10514392
8	0xbdf00a4c	-0.11720714
9	0x3dddc87e	0.108292565
10	0xbda1b585	-0.0789595
11	0xbe116daf	-0.14201997
12	0xbe2444d4	-0.16041881
13	0x3e36d2da	0.17853871
14	0x3e2ba5ab	0.16762416
15	0x3df3fb70	0.11913192
16	0x3e0cb216	0.1373981
17	0xbc99e068	-0.018783763
18	0xbd7519d7	-0.059839096
19	0xbd01cd0a	-0.03168968
20	0xb9b9e108	-0.0003545361
21	0x3d5548fd	0.05207156
22	0x3b218410	0.0024645366
23	0xbe411f7c	-0.18859667
24	0xbda9028f	-0.08252441
25	0x3e11ba34	0.14231187
26	0x3e3a96d3	0.18221597
27	0xbd4bed3b	-0.049786787
28	0xbe123e72	-0.14281633
29	0x3e37b5d0	0.1794045
30	0x3db7b29e	0.089696154
31	0xbd070bae	-0.032970123
