trained_scorer/Cora_epagcl_sage_scorer_model_100_epochs_s4_ex8.pt (torch, 342048 bytes, 5 tensors)

net.0.weight f4 [64, 1287]
000000 63 49 b0 3c 90 8f c9 3c 1f 89 06 bc 61 e3 ae 3c
       0.021519369 0.024604589 -0.008211403 0.021348657
000010 88 30 c3 bb 20 b3 d1 3b 64 60 8d bc 46 b3 55 3c
       -0.005956713 0.006399527 -0.017257877 0.01304323
000020 08 e4 ce 3c 81 4f be bc 5b c7 a0 3c b8 02 09 3b
       0.025255218 -0.02323127 0.01962631 0.0020906162
000030 c8 d1 ba 3c 44 a4 8e 3b ca 7c d1 3b e0 ed 07 bc
       0.02280511 0.004353078 0.00639305 -0.00829646
000040 36 0c 5e 3c f2 55 12 bc fb 3b 0b bc a0 e6 0f bb
       0.013552716 -0.008931624 -0.008498187 -0.0021957532
000050 d9 07 41 bc 11 b7 68 bc 39 40 22 bc 50 11 31 3c
       -0.011781656 -0.014203803 -0.009903007 0.01080735
000060 98 39 88 bc 2e f2 82 bc 69 eb ca 3a 91 8b 6a bc
       -0.016629025 -0.01598462 0.0015481535 -0.014315502
000070 d3 f9 fe 3a bf ca dd bc c2 82 b7 3c 14 e3 f2 bc
       0.0019453116 -0.027074216 0.022401217 -0.029649295
000080 ba 40 cd 3c 39 25 c4 bb 88 53 6c bc d6 1b 4d 3c
       0.025055278 -0.0059858826 -0.014424212 0.012518844
000090 c0 4f d6 3a b1 59 9a 3c 93 ae 38 ba 4b 77 06 bc
       0.0016350672 0.018841596 -0.00070450566 -0.008207153
0000a0 e3 eb e7 3b 93 92 d5 bb 6e 4a fb 3a 25 ab 8e 3c
       0.0070776804 -0.006517717 0.0019171962 0.017415592
0000b0 a0 82 29 3c 39 6d 9b bc 94 b1 65 3c d7 a0 81 3b
       0.010346085 -0.01897298 0.014019389 0.003955941
0000c0 c6 38 fd 3b 0f 02 4a bc 7e 33 00 bd 69 7a a2 bc
       0.007727715 -0.012329592 -0.031299107 -0.01983376
0000d0 d8 f7 8c bc 50 dc eb 3c dd 4a 21 3a 14 34 47 3c
       -0.017208025 0.028791577 0.0006152818 0.0121584125
0000e0 7b 37 f6 39 53 8c 0e 3a 44 2c aa 3c c2 16 01 bc
       0.00046962113 0.000543778 0.02077306 -0.007878961
0000f0 3c 03 61 bb be 2e a4 bc 93 28 e9 3a 10 00 8a bb
       -0.0034334203 -0.02004182 0.0017788581 -0.004211433
000100 b4 8d de 3b d0 9f 63 bc 9d 9e e5 3c 1e f1 92 bc
       0.0067917947 -0.013893083 0.028029734 -0.01793724
000110 10 bc 60 bc 16 12 c9 bc a2 86 91 3c ea a3 c5 3b
       -0.013716713 -0.024544757 0.017764393 0.006031503
000120 7a 3c c5 3c 2e 0a cf bc f6 89 b2 bc 1d 7a f5 bc
       0.024076689 -0.025273409 -0.0217943 -0.029965455
000130 22 86 d4 bc ec e4 f7 3b 98 60 4e 3c b6 c2 74 3c
       -0.025942866 0.0075651314 0.012596272 0.014939001
000140 a0 d9 d1 bb ac 2d 82 bc 7b ee 73 3c d4 b7 8d bc
       -0.0064041167 -0.015890919 0.014888401 -0.01729957
000150 67 9f 7b 3c 22 79 82 ba 72 f7 b1 3c c4 98 b9 bc
       0.015357829 -0.0009954313 0.021724436 -0.022655852
000160 47 9a 94 bc cf dd a0 3b 07 a7 c9 3b 93 56 4e bc
       -0.018139971 0.004909254 0.0061539444 -0.012593883
000170 95 71 9a 3c c5 2c ad 3c b2 2f c0 bc 05 36 a4 bc
       0.018852988 0.021139512 -0.023460243 -0.02004529
000180 5c ff ad 3c 8e 1a 5c bc 61 d7 68 bc fc 06 08 bd
       0.021239929 -0.0134340655 -0.014211507 -0.033209786
000190 a2 20 b0 bc b2 a0 fa 3b ec 81 1b bc cd 16 a7 bc
       -0.021499936 0.007648551 -0.009491425 -0.020396614
0001a0 2f 52 b0 39 40 48 b6 bc 18 a5 d4 bc eb bc f1 bb
       0.00033630567 -0.022251248 -0.02595763 -0.007377257
0001b0 91 7f be bc 03 0b b4 bc d7 f3 ad 3c 51 e2 12 3b
       -0.023254188 -0.021977907 0.021234436 0.0022412727
0001c0 af 1a 32 3c 2b 10 0c bd cb fe b8 bc a0 50 8d bb
       0.01087062 -0.034195106 -0.022582432 -0.0043125898
0001d0 28 f3 0b bc 15 8e cb bc f1 91 87 bc a0 ec 52 bc
       -0.00854186 -0.024848023 -0.016549082 -0.012873799
0001e0 7d ec 0f bc f7 b4 12 bb b0 94 0a bc a6 61 a6 bc
       -0.008784411 -0.0022385695 -0.008458301 -0.020310234
0001f0 10 14 64 bc 66 8f 38 bc c7 04 80 bc 84 a6 d1 bc
       -0.013920799 -0.011264658 -0.015627278 -0.025592096
000200 71 4d 01 3d 81 f8 39 bc af d7 99 3c ed ed 47 3c
       0.031567995 -0.011350752 0.018779604 0.012202722
000210 59 e2 e1 bc 45 ac 80 3c bf 53 2a bb c4 c2 80 bc
       -0.027573751 0.015707145 -0.0025989858 -0.015717871
000220 cb bf 8d bc f8 d9 93 bc 50 3c 8a 3c dd bc d2 bb
       -0.017303368 -0.018048272 0.016874462 -0.0064312057
000230 b2 75 28 3c 51 f8 d5 bc 43 ab b1 3c a7 17 95 bc
       0.010281967 -0.026119383 0.02168811 -0.018199755
000240 2d 0c 15 bc b0 57 9f 3b 3a 62 ef 3b f7 e6 d9 3c
       -0.009097141 0.004862748 0.0073054107 0.02659939
000250 d9 ee 05 3d a4 da b0 bc e6 3d 5a 3c 88 5e 06 bc
       0.032698486 -0.021588631 0.013320422 -0.008201249
000260 29 e5 92 bc f8 91 d8 bc b8 d4 c4 3c e8 a8 80 bc
       -0.017931538 -0.02643679 0.024027213 -0.01570554
000270 33 66 4f 3c db 7a 1a 3b 29 cb 2a 3c de 4c 78 bc
       0.012658644 0.0023571763 0.010424414 -0.015155045
000280 45 32 18 3d 2d 59 29 3c 56 e4 9e ba 0b da dc bc
       0.037157316 0.010336203 -0.0012122493 -0.02695944
000290 0d 31 ac 3c 9d dc 39 bb 09 ba a4 bc 3f f5 b3 3c
       0.021019483 -0.0028360256 -0.02010824 0.021967528
0002a0 be 4d 07 3c af 02 40 bc 67 22 6c bc 2f 67 d7 3b
       0.008258281 -0.01171939 -0.014412499 0.0065735797
0002b0 fc 44 3c 3c d5 5f 27 bc 21 4b c4 bc 21 ae 31 bc
       0.0114910565 -0.010215719 -0.023961606 -0.010844738
0002c0 85 c1 a7 bc 3e ec 91 3b 79 a0 bf 3c 13 43 e5 bc
       -0.02047802 0.004453211 0.023391949 -0.027986085
0002d0 8d 36 73 38 24 78 61 3c e4 eb 85 3c 77 43 86 bc
       5.798652e-05 0.013761554 0.016347833 -0.016389592
0002e0 96 3d c3 3c ba d3 aa 3c 6c 05 88 3c 24 22 14 bc
       0.023833077 0.020852912 0.016604148 -0.009041343
0002f0 db 1f 19 bc 79 27 0f 3c 0c 2d ef bb b0 34 48 bc
       -0.009345974 0.008737438 -0.007299071 -0.012219593
000300 0d 31 90 3c 47 e6 af 3c 84 80 b6 3a 47 26 86 bc
       0.017601514 0.02147211 0.0013923799 -0.016375674
000310 3d db 80 bb 11 2b 4c bc ec 7c af 3b ee 4d 98 3b
       -0.0039323852 -0.01246144 0.005355468 0.004647962
000320 f7 ce bc bc 0d e4 70 bc b5 3f 98 3c fb a6 2e 3c
       -0.023047907 -0.014702809 0.018585065 0.010659928
000330 54 7c dd bb 16 92 b5 bc 34 b3 c4 bc 2b 68 01 bd
       -0.006759206 -0.022164386 -0.024011232 -0.031593483
000340 d9 0f 30 bc a2 19 14 3b 9e 47 8c 3c bb 9c d2 3b
       -0.010745966 0.0022598286 0.017123993 0.006427375
000350 fd be a3 bc 6e 89 73 bc 5e a5 17 bc 19 a6 fd 3c
       -0.019988531 -0.014864309 -0.009255735 0.03096299
000360 95 66 ad 3b 93 92 75 bc f8 2d 57 3a 14 c6 86 bc
       0.0052917697 -0.014988559 0.0008208449 -0.016451873
000370 cb 0b cc bc 02 f6 9b 3c 14 7c 32 bc ee 16 8f bb
       -0.024907967 0.019038204 -0.01089384 -0.004366747
000380 48 10 dd bc 6f b8 64 3c 10 1c aa 3c ee 1a 27 3c
       -0.026985303 0.013959988 0.020765334 0.010199292
000390 8e 92 68 bc 8a da f3 bc fa d0 cb bc 34 d9 94 3c
       -0.014195098 -0.029767293 -0.024879921 0.018169977
0003a0 b6 09 8f 3b 7e d9 c1 3c aa d9 7b 3c 48 6e 8c bb
       0.0043651713 0.023663279 0.015371719 -0.0042856075
0003b0 8d d7 88 3b 64 f7 66 bc e3 17 a4 bc c0 3d 0b bd
       0.0041760863 -0.014097068 -0.020030921 -0.033994436
0003c0 da cc d4 3b ca 9a 27 bc c2 6e 41 bc d8 cc 7a bc
       0.006494147 -0.010229776 -0.011806192 -0.015307628
0003d0 e1 ec 1d bc 9c 96 c5 bc 67 67 bf bc 04 70 0d 3c
       -0.009638996 -0.024119668 -0.023364736 0.008632664
0003e0 0b 54 96 bc 29 8e 30 3c 9f b6 11 3b 50 9d bc bc
       -0.018350622 0.010776081 0.0022234095 -0.023024231
0003f0 9d c9 aa bb 3c 80 77 bc ae 8c 4b bb 42 f7 e3 bc
       -0.0052120225 -0.015106257 -0.0031059193 -0.027827863

net.0.bias f4 [64]
000000 51 9f d2 3c 88 c5 23 bc 51 b8 c7 3c ac f7 26 bc
       0.025710734 -0.009995826 0.024379881 -0.0101908855
000010 72 76 58 bc e0 16 93 bc 66 13 15 3c 08 ae e8 3b
       -0.013211833 -0.017955244 0.009098863 0.0071008243
000020 d3 ee 4d 3d 04 47 15 3a d0 4c 71 bb b3 45 00 bd
       0.05027659 0.0005694481 -0.0036819465 -0.03131647
000030 13 5c 7d 3c 3c 30 9a bc 4e 81 03 3d 32 d7 19 bc
       0.015463847 -0.018821828 0.032105736 -0.0093896855
000040 6d f8 08 3c 6e 71 8b bc 49 ab 04 bb 11 1a 0f 3c
       0.008360011 -0.01702186 -0.0020243695 0.008734242
000050 f0 2f b6 bc 2a d0 28 3c ad ef fe bb 2f 82 ad 3b
       -0.022239655 0.010303536 -0.0077800364 0.00529506
000060 71 b5 3d ba 13 aa c5 bc 01 70 a2 3b 00 38 2b 3d
       -0.00072368147 -0.02412895 0.0049571996 0.041801453
000070 7e 8d 14 bc 21 ab 84 3c 27 a9 d3 3b f6 3e c3 3c
       -0.0090669375 0.016194882 0.0064593735 0.023833733
000080 fc f4 be ba 26 d9 2d 3c 55 de 40 3c d1 30 eb bc
       -0.0014568861 0.010610854 0.011771758 -0.0287098
000090 c4 b0 f2 bb 82 17 13 3c 76 ab a7 3b 2f fa dd 3b
       -0.007406326 0.008977773 0.0051168753 0.006774209
0000a0 7a 1c 1d 3d b3 9f 91 bc ce 40 ac bb 9e 78 60 b9
       0.038357235 -0.017776346 -0.0052567488 -0.00021407238
0000b0 a1 68 01 3d b5 e4 b9 bc f2 3b 44 bb f1 81 9a b9
       0.031593923 -0.022692064 -0.0029942957 -0.00029469983
0000c0 9b f2 c0 bb d1 84 3a 3b e8 99 98 bb eb 45 aa bc
       -0.005888296 0.0028460512 -0.004657019 -0.020785293
0000d0 af ac 30 ba fe e9 72 3b 22 98 46 3c f3 52 27 bc
       -0.0006739599 0.003706574 0.012121232 -0.010212648
0000e0 6f 91 1e 3c cf bb a1 bb 36 13 4e 3d 03 a6 06 bd
       0.009678229 -0.0049357186 0.05031129 -0.032873165
0000f0 3c a4 7a 3c 4d a7 fb 39 24 de 5e b9 69 be 53 3c
       0.015297946 0.000479991 -0.00021254324 0.012923815

net.3.weight f4 [32, 64]
000000 f3 ad 81 3c 6e 3c 4e 3d b7 77 28 3c 64 a0 04 be
       0.015830016 0.0503506 0.0102824485 -0.12951809
000010 1c 8b b9 bc 49 21 c9 3c e1 bf a0 bc 53 43 c5 3d
       -0.02264934 0.024552004 -0.019622745 0.09631982
000020 d1 c6 17 3e f1 cb be 3d a4 98 c4 3d 2a 32 6b bd
       0.14821936 0.093162425 0.095994264 -0.057420887
000030 bd 11 03 bd b6 55 d4 bc 17 74 38 3d fc 72 6d 3c
       -0.03199934 -0.025919776 0.045032587 0.014492746
000040 7d 99 c3 bd 14 40 26 bd 15 ba 07 3e ab 05 04 3d
       -0.0955076 -0.040588453 0.13254578 0.032231968
000050 2e 97 9b bd 46 08 a4 bd 4c ae 83 bd a6 03 98 3d
       -0.075971946 -0.080093905 -0.06429729 0.07422571
000060 c4 7a 8e 3d 4e ba 39 bd f6 34 42 bd 97 f1 ba bd
       0.069570094 -0.04534369 -0.04741379 -0.09128111
000070 68 62 a2 3d d3 57 7b bd 0d 96 bd 3b c2 e8 d2 3c
       0.07928926 -0.061363053 0.0057857097 0.025745753
000080 83 68 15 3e 00 ed a1 bd bb 45 a5 bc af f3 b6 bd
       0.1459065 -0.07906532 -0.020174852 -0.08933198
000090 97 59 f8 3c 13 50 80 bd c2 5b 99 3d 1b e6 42 3d
       0.030316157 -0.06265273 0.074882045 0.047582727
0000a0 f8 6a ea 3d 0b e5 c0 bd 5a 3b 8d 3d 43 4f 04 be
       0.11446184 -0.094186865 0.06896086 -0.12920861
0000b0 ab d2 cf bc b3 ad d7 bd 6d d3 74 bd 52 80 03 3e
       -0.025369009 -0.10531177 -0.059771944 0.12841919
0000c0 94 54 f9 bd d2 cf de 3d d5 25 cd 3d 6b d7 36 bd
       -0.12174335 0.10879482 0.100169815 -0.044639032
0000d0 75 70 82 3d f7 99 68 bd 5b 58 87 3d 58 e9 91 bd
       0.06369106 -0.056787457 0.06608649 -0.07124585
0000e0 8a d8 2d 3d e6 c6 d7 bb cd 6f 1b 3c e8 bb d6 bd
       0.042442836 -0.00658499 0.009487105 -0.10485059
0000f0 4b 17 87 bd ac f6 3c bd d9 f9 ed 3a bf d7 11 3e
       -0.0659624 -0.046133682 0.0018156125 0.14242457
000100 41 ae 98 bc 0a 8c e2 3d 3a fb 8d 3c 25 b7 d8 bd
       -0.018637778 0.110618666 0.017331708 -0.10581807
000110 00 9c 02 3e fd 3c 0e 3d c4 c9 42 3d 00 a8 12 bd
       0.12754822 0.03472613 0.0475557 -0.03580475
000120 b8 b2 c7 3d 58 af 18 3d 08 0b ab 3d 65 e9 ab 3d
       0.09750885 0.037276596 0.083517134 0.08394126
000130 f5 ba b8 3d c8 2c d4 bd 3f c2 ec 3d 85 55 a2 bd
       0.09020034 -0.10360104 0.11560487 -0.07926468
000140 d2 f5 21 bd c5 a3 32 bd 93 8a b7 bd ab 6d a2 3d
       -0.039541073 -0.043613214 -0.08961978 0.07931074
000150 41 4d b8 3d 58 98 ee bd 3a ed 52 bd ac b7 03 be
       0.0899911 -0.11650151 -0.051495768 -0.12863034
000160 70 84 9b 3d 7c 2c de bd be 79 a0 bd 21 85 d8 3d
       0.0759362 -0.108483285 -0.078357205 0.10572267
000170 b3 2d 57 3d 5a ed a9 bd b3 75 c3 3d 21 f8 70 bc
       0.052533817 -0.08297224 0.09543934 -0.014707596
000180 2e 07 1c 3e ac 15 ca 3d 32 60 b4 bd 6c 9b b4 bd
       0.15237114 0.09867415 -0.0880741 -0.08818707
000190 d2 4c 4f bc 5a d0 d3 3c fb bd 10 bc 57 62 8c 3d
       -0.012652593 0.025856186 -0.008834357 0.06854694
0001a0 35 ce 21 3d 69 33 81 bd 9d e3 f4 bd 0d 56 a3 bd
       0.039503295 -0.06308634 -0.11957476 -0.07975397
0001b0 29 d9 55 3d c0 d2 5a bd 7a 96 66 3d e2 a5 0c 3e
       0.052209053 -0.053423643 0.05629585 0.13735154
0001c0 61 48 d8 bd 3a a9 a6 3d 89 b9 90 bd 74 32 91 3d
       -0.1056068 0.08137746 -0.07066638 0.07089701
0001d0 c1 de 0a 3b d0 6d 0e 3e ec 8d db 3d 94 7b 92 3d
       0.00211899 0.13909078 0.10720429 0.07152477
0001e0 52 ca a6 bd 02 ff 63 bd 06 41 f8 3d 6d 21 c4 ba
       -0.08144058 -0.055663116 0.12121777 -0.0014963575
0001f0 27 a2 ca 3d ee 86 81 3c c8 c2 8d bd 02 ad 0f 3e
       0.09894209 0.01581141 -0.06921917 0.14030841
000200 0b 50 dd bd 8d 2a 94 3d a1 32 69 bc 81 fb 2e 3d
       -0.108062826 0.072346784 -0.014233262 0.04272032
000210 30 9f c2 bc b9 c7 13 bc ef d3 85 3d cd 5e c6 3d
       -0.023757547 -0.009019786 0.06534564 0.096860506
000220 20 1d d8 3d 69 3c 5f bd 9d 40 06 be c9 10 34 bd
       0.1055243 -0.05450097 -0.13110586 -0.04396132
000230 de d5 a3 bd d1 68 00 bd 53 21 31 bd f5 8b 5e 3d
       -0.07999776 -0.03134996 -0.04324467 0.054332692
000240 b6 83 68 bc ee 4f 17 bd da 2b da 3d 63 ef c9 3d
       -0.014191559 -0.03694146 0.10652895 0.098601125
000250 e6 36 8e 3d 82 0c 48 bd 60 5b 66 bb cb 2f 9f bd
       0.06944065 -0.048840053 -0.0035149679 -0.07772788
000260 f9 be 08 be 5e 70 ff bc 7e b3 25 3b c7 38 02 bd
       -0.133541 -0.03118151 0.0025283988 -0.03179243
000270 f6 01 87 3c 4f b9 04 bd ee 36 ad bd 89 c7 e4 3b
       0.016480427 -0.032403287 -0.08457743 0.0069817943
000280 a0 ca 62 bd 2b 1c 8f bd 8e 5a 15 3d 6b 4d 5c bc
       -0.05536902 -0.069877945 0.036463313 -0.013446192
000290 86 8c aa bd 5e 78 bd bd fc f8 88 bc cf e7 8c 3d
       -0.08327584 -0.09251474 -0.016720288 0.068801515
0002a0 f5 41 dc 3d 1b ec bc 3d 67 6f 71 bd 0b 0b 14 3d
       0.10754768 0.09224721 -0.058944132 0.036143344
0002b0 b9 6f ba bc de a8 c6 bd 67 37 d1 3d 8d a2 b6 3c
       -0.022758352 -0.097001776 0.10215645 0.022294307
0002c0 24 bf 94 bd 66 d5 cb bc 06 96 44 bd 09 83 f3 3d
       -0.0726302 -0.02488203 -0.047994636 0.11890227
0002d0 b5 d5 f8 3b 85 88 51 bd 34 fb f7 3c f2 22 27 bd
       0.0075938352 -0.051155586 0.03027115 -0.04080481
0002e0 3b fe 32 bd 59 fb 47 3b ba a9 85 3d 9e b6 b5 3d
       -0.043699484 0.0030514805 0.065265134 0.08872722
0002f0 bb c3 8a 3c 2f 2d 74 bd c4 46 7c 3c 76 66 d4 bd
       0.016939035 -0.059613403 0.015397731 -0.103711054
000300 a0 34 4f bb 19 4d 63 3c ce de 0c 3d 6b 0a dd 3c
       -0.003161706 0.013873362 0.03439217 0.026982507
000310 4d d7 3c bc 6c f0 e6 bc 95 be c3 3d ca 01 92 3d
       -0.011525941 -0.028190814 0.09557835 0.071292475
000320 2a dd 02 be 07 ce b4 bd 11 3a 81 3d 90 51 00 3e
       -0.1277968 -0.08828359 0.063099034 0.12531114
000330 d0 13 e7 bd 23 31 7a 3d e1 a9 13 be c8 1b 59 bc
       -0.11283076 0.061082017 -0.14420272 -0.0132512525
000340 65 01 c1 b7 27 ce 8d 3c aa 38 bf bd b0 51 4a bd
       -2.3008042e-05 0.017310215 -0.0933698 -0.04939431
000350 8c 07 f7 3d 07 16 a2 bc 85 6d b9 3d 63 37 f4 3d
       0.12061986 -0.019785894 0.09054092 0.11924627
000360 77 5c f4 3d d1 89 94 bd 63 a5 33 3d 69 4d 94 bd
       0.11931699 -0.07252849 0.043858897 -0.07241327
000370 b1 cc df 3d 75 56 3a 3d 53 f9 14 bb 49 25 4d 3d
       0.10927714 0.045492608 -0.0022731617 0.050084386
000380 df 06 38 3d 2b 17 1a 3d 02 92 0a 3e cd 31 3a 3d
       0.044928428 0.03761975 0.1353226 0.04545765
000390 fc ab 07 be 4c 62 39 bd aa 55 4e bd aa ae 51 3c
       -0.132492 -0.04525976 -0.050374664 0.012797991
0003a0 d6 6c 54 bd de e6 b1 3d 42 5c 5f bd dd 73 65 bd
       -0.051861607 0.086866125 -0.054531343 -0.0560187
0003b0 4b 45 36 3d e2 4f 91 3d e8 26 e0 3d 56 de 5f bd
       0.044499677 0.070953146 0.10944921 -0.054655395
0003c0 48 72 e2 3d c6 18 7a 3d 91 0b e8 bb a3 85 7c 3d
       0.11056954 0.061058782 -0.007081457 0.061650883
0003d0 98 bb 53 bd 7a 78 a0 3c d6 e1 04 3e 7d 8a be bd
       -0.051692575 0.019588698 0.12976775 -0.09303758
0003e0 d8 0c 0f 3d ea 85 21 3d 93 eb 0b be c8 0a 43 3d
       0.034924358 0.03943435 -0.13664083 0.047617704
0003f0 a4 32 cc bd 87 41 27 3d c9 d9 05 3e 26 fb 0c be
       -0.099705964 0.040833976 0.1307136 -0.1376768

net.3.bias f4 [32]
000000 1b 67 5a 3d 42 d0 93 3d 74 4d e4 bd 48 1e 72 3d
       0.053320985 0.072174564 -0.111475855 0.05911091
000010 56 5e 83 bc 54 0a a5 3d 8c 31 25 3b 6c 3d 71 bd
       -0.016036194 0.080586106 0.0025206534 -0.058896467
000020 2d 79 e6 bb f2 68 ab 3d ca d1 f6 3d 7a b1 cd bd
       -0.0070334882 0.08369626 0.12051733 -0.100436166
000030 19 5d ce 3d ac 97 a1 3d 0c f6 96 3c 80 51 e7 bd
       0.10076351 0.07890257 0.018427871 -0.11294842
000040 6d 5b 04 be 6f 00 d4 3d 2d 49 ef 3c 0f 1e d1 3d
       -0.12925501 0.10351645 0.029209698 0.10210811
000050 70 83 eb bd 7b 8d c2 bd dc 3b a6 bd 23 06 f0 3d
       -0.11499679 -0.094996415 -0.08116886 0.117199205
000060 36 e9 c9 bd ab 88 e1 bd a1 62 26 3d 41 7b f1 3b
       -0.098589346 -0.110123955 0.040621404 0.0073694293
000070 e2 6d c5 bd ad 3e 33 3d 90 e9 81 bd 4a e2 14 bd
       -0.09640099 0.043760944 -0.06343377 -0.03634862

net.6.weight f4 [1, 32]
000000 34 28 3b 3d 27 81 46 3e 8f eb d7 3d 04 eb a9 bc
       0.045692638 0.19385205 0.10542976 -0.020741947
000010 d4 bd d7 3d 5a 24 02 be b8 d0 9f bc ab ca cd bd
       0.10534254 -0.1270918 -0.019508705 -0.100484215
000020 56 00 02 be 8c da ab 3d f1 8d 77 bd fe e0 1a be
       -0.1269544 0.08391294 -0.0604381 -0.1512489
000030 8e 66 26 be df cc 20 3e 2e 77 14 3e d9 27 f6 3d
       -0.16250059 0.15703152 0.14498588 0.12019319
000040 c5 5f 00 3e ec ea 9f bc 4a 2d 6c bd 33 c7 cc bc
       0.12536533 -0.0195212 -0.05766038 -0.02499733
000050 78 d4 a2 3b 27 97 6e 3d fe 54 12 bb ec 6f 28 be
       0.004969176 0.05824962 -0.0022328491 -0.16448945
000060 27 23 a4 bd e4 29 06 3e b0 60 29 3e 1e 89 43 bd
       -0.08014517 0.13101918 0.1654079 -0.047738187
000070 4e 85 17 be b4 93 21 3e 5a 3b a3 3d 69 a0 a6 bc
       -0.14796945 0.15779 0.07970305 -0.020340161
