trained_scorer/PubMed_epagcl_gcn_scorer_model_100_epochs_s4_ex8.pt (torch, 342060 bytes, 5 tensors)

net.0.weight f4 [64, 1287]
00000000: 4e85 c23c b4f4 393c 65d3 80bc d439 bd3c
00000010: dd13 0cbd ee1e bfbc 65da bcbc 227e 213b
00000020: 9aaa 2b3c faf2 14bd c912 983c d109 00bc
00000030: d3e1 653c 3539 67bc 0f47 afbb 1d77 84bc
00000040: acfe 0b3c 98aa 4039 457e e8bc f3b5 693c
00000050: 5458 eebc b2aa e1bc 52e7 92bc c677 173c
00000060: a220 d8bc 68ca 6cbc f860 95bb 6236 e5bc
00000070: 93f5 edbc 7f47 47bd d62a 803b 0e1f 3fbd
00000080: 6b3f cd3c d99b 02bc a146 e2bc 23a5 dc3b
00000090: 06f8 52bb 1a08 8e3c 61c1 4dbc bf6f 8bbc
000000a0: 9d41 b5b9 abb4 9abc 2ff5 0f39 9da3 a23b
000000b0: f598 0a3c e159 4cbd eb70 f73a 0d66 1cbc
000000c0: 59ed 8eb8 7ac5 a0bc 36b1 4dbd 8c25 11bd
000000d0: aa5b 06bd ab3b 51bc a5d9 00bc a3fc 3bbb
000000e0: 22d8 2dbc c60f 043a 75c1 893c 6c52 0ebd
000000f0: ae03 1ebc 0969 2abd bd4d 8d3c e00a 15bd
00000100: 1084 523b e1d9 90bc 426d 55bc 6c6b e0bc
00000110: 8125 b2bc 5aab 0ebd 8623 be3b 6152 cfba
00000120: 5e6a 033c e3dc 31bd aa7e 03bd b7c3 d0bc
00000130: ab52 08bd 0492 50bb 9db4 82bc 72a2 b83c
00000140: 0e99 c7bc a7da 7abc f512 6b3b c77f 8ebc
00000150: 73b6 9d3c 5b2e 90bc 1747 0aba 052e 07bd
00000160: 3c8c 71bc 6533 64bc 3adb 4abc 27c1 a9bc
00000170: a74a 963b fb51 c03c 52ed 3fbd fbd7 63bc
00000180: 9958 b13c b4ba f9bb 7318 ecbc cef5 4bbd
00000190: f709 a3bc 3221 3dbb 807a a2bc ea7a d5bc
000001a0: fb7f 91bc bde1 77bc dedc 14bd 8812 c5bc
000001b0: 2eca 6bbc 81fb 37bd 249d d23c 3083 b3bc
000001c0: b3ef 06bd d596 0dbd 577e 18bd 1ab9 82bc
000001d0: 5cc6 8f3c 768e 1fbd c038 acbc ac23 18bd
000001e0: 7e20 87bc 932d fbbc c943 48bc c74f d8bc
000001f0: e8d2 12bd 55f2 9bbc bc8f e9bc f20f 04bd
00000200: 0a8d 103c 0b72 1cbd 3047 233c 5216 2d3b
00000210: 75fb dcbc d887 173c eb93 2abd 46a0 8bbc
00000220: 9954 a7bc ffad 2bbd 45e0 723b 7cd4 f9bc
00000230: 50bb c4ba 370e 12bd 6e47 bd3b fa7a ecbc
00000240: f36a 80ba a40b 27bb f3ba 35bc 1bf8 4c3c
00000250: c4e2 583c 0424 dcbc 8137 5f3b 051f 8dbc
00000260: c917 3abc c572 2dbd e458 923c 113d 2cbd
00000270: c5dc 84bb 9d4d 82bc d3b4 ccbb 876a efbc
00000280: 6479 6e3c 7dd2 c3bc d1db cebc efd4 0bbd
00000290: ec8b 883b d666 15bd 409e e4bb 3fc6 ce3c
000002a0: f8d2 bbbc 505e b7bc be26 0abd 14c3 c6bc
000002b0: d571 e53a 3233 31bc ac02 fcbc 56fc 99bc
000002c0: c128 febc 3ef8 e4b9 5234 1cbc 345d 06bd
000002d0: dccf eab9 3f28 d7bc 8eba dbbb 29ed fabc
000002e0: 17fb a8ba b269 433c 27bf 273c 5efd c6bc
000002f0: 37ee 50bd 3534 003b 4af9 e5bc d680 25bc
00000300: 68b9 e03c fac1 a63c 8f82 0bbd f65b 83bb
00000310: 4570 4dbc f5df 88bc 82df 473c e53c 0ebc
00000320: 7ea2 4bbd 129f 02bd 4525 1f3b 8580 73bc
00000330: 554b 59bc 6cd6 68bc 47df 6abb 6a93 08bd
00000340: 9e33 a8bc bd9c cc3c f69b 423c 9774 ea3b
00000350: fc98 9bbc 9f9f 9cbc 3f17 d0bc 86c8 cc3c
00000360: a12d a83a a831 543c ed3f 4fbb 6853 f8bb
00000370: 40bf 87bc be7a 763c daea 43bd 6b19 04bd
00000380: 7317 14bd 897e 0f3c 29aa 313c ca48 5a3c
00000390: 9f25 f9bc 6600 41bd 0254 01bd 1eea 47bb
000003a0: 05ba 433c 2b2a c03c 9f9d c5bb 0435 573b
000003b0: 4393 65bc a50d 51bd 6e29 33bd 72b8 84bd
000003c0: 87a1 fe3a 39db bcbb 715f 9ebc 2937 41bc
000003d0: f17c 98bc 15c3 2ebc 89de c0bc e1e7 85bb
000003e0: bbd2 39bc 2e9f 51bc c4dc 84bc 0766 36bd
000003f0: 1b23 7bbc 9fb5 82bc 0bb9 7a3a 31d2 60bd
0.023745205 0.011349846 -0.0157258 0.023098864 -0.03419863 -0.023330178 -0.023053357 0.0024641831
0.010477686 -0.036364533 0.018563645 -0.00781484 0.0140308915 -0.01411276 -0.005349047 -0.016170079
0.008544605 0.00018374098 -0.028380523 0.0142645715 -0.029094853 -0.027547214 -0.017932568 0.009244865
-0.026382748 -0.014452554 -0.0045586787 -0.027980033 -0.029047763 -0.04865217 0.0039113564 -0.046660475
0.025054654 -0.007971727 -0.02762157 0.006733553 -0.003219129 0.017337848 -0.012558312 -0.017021058
-0.00034571896 -0.018884977 0.00013728881 0.004963352 0.008459319 -0.049890403 0.0018878257 -0.009545815
-6.815297e-05 -0.019625414 -0.05021783 -0.035436198 -0.03280226 -0.012770574 -0.0078643905 -0.0028684519
-0.010610612 0.0005037751 0.01681588 -0.034746572 -0.009644432 -0.041604076 0.017248983 -0.036387324
0.0032122172 -0.017682018 -0.013026537 -0.027394973 -0.021746399 -0.034831382 0.0058025746 -0.0015817398
0.008020965 -0.043423545 -0.03210322 -0.02548395 -0.033281963 -0.0031825313 -0.015955264 0.022538397
-0.024364974 -0.01531092 0.0035869454 -0.017394913 0.019252038 -0.017600229 -0.00052748754 -0.033002872
-0.014742907 -0.013928269 -0.012381369 -0.020721985 0.004586536 0.023476591 -0.046857186 -0.013906474
0.021648692 -0.0076211337 -0.028820252 -0.049794964 -0.019902213 -0.0028858897 -0.019833803 -0.026059587
-0.017761221 -0.015129504 -0.036343448 -0.024056688 -0.014391465 -0.044917587 0.025709696 -0.021913141
-0.03294344 -0.034567673 -0.037229862 -0.015957404 0.01755064 -0.03895422 -0.021023154 -0.037143394
-0.016494986 -0.03066138 -0.0122231925 -0.026405228 -0.035845667 -0.019036451 -0.02851092 -0.03224177
0.008822689 -0.038194697 0.009965703 0.002641101 -0.026975373 0.009248696 -0.04164497 -0.017044198
-0.020426081 -0.041913982 0.0037059945 -0.030496828 -0.0015009437 -0.035658088 0.0057763373 -0.028867234
-0.0009797498 -0.0025489116 -0.011091935 0.012510325 0.013237659 -0.026872642 0.0034060183 -0.017226705
-0.01135821 -0.04234578 0.017864652 -0.042050425 -0.004054638 -0.01590615 -0.006247142 -0.0292256
0.014555309 -0.02390408 -0.025251301 -0.034138616 0.0041670706 -0.036475025 -0.0069768727 0.025241015
-0.022927746 -0.022383839 -0.033728354 -0.024262942 0.0017505238 -0.010815429 -0.030762993 -0.018797081
-0.031025292 -0.00043672504 -0.0095339585 -0.03280373 -0.00044786825 -0.026264308 -0.0067055887 -0.030630665
-0.0012892213 0.011927055 0.010238445 -0.024290737 -0.05100843 0.0019562368 -0.028072972 -0.010101518
0.027432159 0.020356167 -0.034060057 -0.0040087653 -0.012538974 -0.016708354 0.0121992845 -0.008681511
-0.04971551 -0.031889983 0.002428369 -0.014862184 -0.013262589 -0.014211278 -0.003583865 -0.03334371
-0.020532425 0.024977082 0.011878004 0.007155012 -0.018993847 -0.019119082 -0.02540171 0.02499796
0.0012830981 0.012951292 -0.0031623796 -0.007578302 -0.016570687 0.015043912 -0.047831394 -0.032250803
-0.036155175 0.008758196 0.010843792 0.013323018 -0.030413447 -0.04711952 -0.031574257 -0.0030504535
0.011946206 0.023457607 -0.006030753 0.0032837996 -0.014012161 -0.051038403 -0.043740682 -0.06480493
0.0019426801 -0.005763438 -0.01933262 -0.011792936 -0.018614264 -0.010666628 -0.023543613 -0.00408648
-0.011341746 -0.012794299 -0.01621855 -0.044530895 -0.015328194 -0.015955744 0.0009564317 -0.054887954

net.0.bias f4 [64]
00000000: c96c a239 cef2 b93c 1919 ddbc a4d8 07bd
00000010: 4764 393d f1d3 823d e9b9 93bc 01da 8e3d
00000020: d7a5 b63d 66c5 bfbc 7ca1 46bc cbb7 e1bc
00000030: 73ec af3c 0242 2dbd ef21 b93d dab0 7dbc
00000040: 3146 ab3d 8813 70bd e056 693d 0f55 c93d
00000050: 4f62 0bbd afd1 793b a2ea 5abd ed2d 5ebd
00000060: f686 96bc fba1 0d3d 96c8 fdbc 023d a43d
00000070: c364 38bd 17c8 223d f0bb 01bc 9343 09bc
00000080: 5a53 443d eec3 c23d 7709 23bd 9f06 63bd
00000090: 271e 33bd 6d31 b8bb d9fd aa3b 309b c23d
000000a0: 852b da3d 6811 86bd e436 57bd 51a9 26bd
000000b0: e487 823d 51af 61bd 0f50 623d f387 f43c
000000c0: 6b40 3fbd a12e a63d b460 b6bc bf42 b13b
000000d0: 2e0c c1bc fefa 473d 95a5 443d 82a0 6ebc
000000e0: a435 1bbc 0159 86bd 72bc db3d 75d3 bebb
000000f0: f878 403d 8475 64bd 50e1 91bc bc73 963d
0.000309801 0.022698786 -0.026989507 -0.03316559 0.045261648 0.06388081 -0.018032985 0.06975175
0.0891835 -0.023409557 -0.012123462 -0.02755346 0.021475052 -0.042299278 0.090396754 -0.015484059
0.08362997 -0.058612376 0.056967616 0.09830677 -0.0340293 0.0038119366 -0.05344642 -0.054243017
-0.018374901 0.034578305 -0.030979436 0.08019449 -0.04501797 0.0397416 -0.007918343 -0.008377927
0.047931053 0.09510027 -0.03980395 -0.055426236 -0.043729927 -0.0056211264 0.0052182493 0.09502256
0.10652832 -0.06546289 -0.052542582 -0.040688816 0.06373575 -0.055098835 0.05525213 0.029849982
-0.046692293 0.081143625 -0.022262909 0.005409568 -0.023565378 0.04882335 0.048009474 -0.014564635
-0.009473238 -0.06559945 0.107293025 -0.0058235475 0.046990365 -0.055776134 -0.017807633 0.07346293

net.3.weight f4 [32, 64]
00000000: 9489 e0bc 8bc9 b63d ceea 3dbd 2ced 1abe
00000010: 7ec0 443d faf3 ae3d 0a45 debc 2bd9 223e
00000020: d1ee 2a3e 5e97 613d 79f6 ba3d abd6 cfbc
00000030: b93c 223c 2234 a8bd 05c9 bd3d 7847 7d3c
00000040: 9584 05bd 9b19 c1bd 1350 373e e127 013e
00000050: 548a 1fbd 70e8 acbd 6257 c5bd 7bb3 863c
00000060: 92a7 5e3d e828 4c3c 474c c1bd e09a 85bd
00000070: 6459 543d 14cf 6bbd 491b d9bc b1c5 4c3c
00000080: eb05 493e 82a8 813c 9e60 94bd 5851 abbd
00000090: b97a a33c e404 acbd 5157 763d a157 f33d
000000a0: 5376 323e 1bc3 19be d533 ee3c 9c64 3ebe
000000b0: 3301 2c3a a542 8cbd 3d1e 05bc 850f 233e
000000c0: 5443 33be d7d8 353e 368c a03d 87da 663c
000000d0: 3019 813c 7ef5 c5bc 2831 e63d 74c6 9ebd
000000e0: bdc2 6e3c 49ad 89bd 7399 903d c371 8dbd
000000f0: 0b1d d4bc 58ee c3bd c41a 303c 1945 4e3e
00000100: e709 cfbc 393f d93d 3ca3 12bd f732 fbbd
00000110: 659f 2b3e 5d37 833d 1e6e 153d 7139 8d3a
00000120: cbb1 b73d 9fd8 203c 4ad3 953d 8487 a63d
00000130: 30ba ee3d 5563 13be 600d e93d 3b1c 80bd
00000140: df41 24bc d83b debd 36a0 92bd 0d1e de3d
00000150: 9e9f 023e f993 0dbe acd4 91bd 4d34 32be
00000160: 94f4 693d dd46 80bd 3f99 f2bd 0c42 bb3d
00000170: c86c e53c 01d7 4bbd 4c3f 953d f631 19bd
00000180: a7e8 153e e50f 133e e37e 10be 167f a9bd
00000190: 6ab3 513b 0efa 3f3d 5660 813b c36f ab3d
000001a0: 63e2 4a3d 3655 e2bd 6f24 23be 0328 e8bd
000001b0: a1bd 353d 53bf c8bc 303c 8b3d e55b 083e
000001c0: 2599 1abe 8cf6 f73d d099 93bd 4c9e dd3d
000001d0: 352b b3bb 408b 0a3e b33b e13d 1377 803d
000001e0: b957 6dbd 254c 00be d145 e63d d3aa 213d
000001f0: 750e dd3d 0ce9 b8bc abf7 30bd 268e 053e
00000200: 9f92 21be 9aa1 e33d cb1f adbd f255 763c
00000210: a443 3d3d a19d 9a3d 7593 3e3d 68c8 323e
00000220: 50d4 083e aff5 b9bd f03e 23be d211 23bd
00000230: 5be9 b8bc fcf3 c2bd e4bd 733b f37c 6b3d
00000240: e035 1d3d 9e86 9ebd 63da 0e3e bd8b 3e3e
00000250: 9ed8 023e 260f 48bd 436b 16bd a4ef 0ebe
00000260: 90cc 23be cd3d 963c bb1d 21bd ac3c 09bc
00000270: 9a9c f7bc 9eb8 bebb 3e3f ecbd 696d 08bc
00000280: 7282 a3bc 5a86 983c 5c91 6cbb 0304 fdbc
00000290: 71fc a8bd c4a7 10be fc0e c9bc 590a 0d3e
000002a0: 2832 143e c887 6a3d 4004 cfbd f3bd 60bc
000002b0: 921c 6b3b 4cfb 51bd 92dc 173e 3bee 583d
000002c0: 78d8 f3bd 629e 433d 2103 9ebd 9c0e 2c3e
000002d0: bc71 3bbd d707 90bc e3a3 e13d a570 3bbd
000002e0: a0f8 9abd 2147 6fbd 08df d33d 4a33 143e
000002f0: 0537 523d cb31 dabd b708 263d 2bc1 87bd
00000300: 9284 0f3d 4974 a8bc 8ec2 a53d 720a 763d
00000310: 62f8 70bd 2a05 83bd 4622 e63d b8b7 2f3c
00000320: 227c 07be 07b5 26bd 76ff b83d 496f 1c3e
00000330: af0e 0abe 97a3 123e 408d 2cbe 10b0 64bd
00000340: 33e4 3fbd e59d 883d a77a b7bd 143b d2bd
00000350: 984a 493d 0b36 113b 82df ff3d a9ba 383e
00000360: 6d47 133e 02f0 c0bd 24cd af3d 0835 a4bd
00000370: e437 103e 2520 cabc 6af1 3d3d 5d69 623d
00000380: 9d30 933c b1c3 17bc 38c5 6f3e 67a0 9f3d
00000390: 7ad0 53be eedf 2f3c 5dbe dfbd 6b5c 2fbc
000003a0: 95f4 9fbd f9c1 1b3e 37f4 473c 399d 30bc
000003b0: 183b fb3c 4af6 a23b db0f aa3d fa29 7cbd
000003c0: 1339 0e3e 546b 403d 3c1c 103d d822 b83c
000003d0: a43c 1a3d 1809 b7bc 8adf b93d 4b07 0cbc
000003e0: b15e 3cbc 3ade f23d fe9a 07be 362a 663c
000003f0: 0af3 07be b658 f23d 3c29 273d 4ff5 18be
-0.027409352 0.0892516 -0.046366505 -0.15129536 0.048035137 0.085426286 -0.02713253 0.15903156
0.16692664 0.055075996 0.09129042 -0.025370916 0.009902173 -0.082130685 0.09266857 0.015458934
-0.032597143 -0.09428712 0.1790164 0.12612869 -0.03895028 -0.084427714 -0.096358076 0.016443005
0.054359026 0.012460925 -0.09438377 -0.06523681 0.051843062 -0.057570532 -0.026502268 0.012498305
0.19631164 0.015827421 -0.07244991 -0.083651245 0.01995598 -0.0839937 0.060141865 0.11881948
0.1742795 -0.15015833 0.02907745 -0.18593067 0.0006561458 -0.06848649 -0.008124885 0.15923889
-0.17506152 0.17758499 0.07839243 0.014090187 0.01575908 -0.024164911 0.112398446 -0.07752696
0.014572796 -0.06722505 0.07060518 -0.06906464 -0.025892755 -0.09566945 0.010748569 0.20143546
-0.025273276 0.10607762 -0.035800204 -0.1226558 0.16760023 0.06407044 0.03648197 0.0010774565
0.08969458 0.0098172715 0.07315691 0.08131316 0.11656606 -0.14393361 0.11379504 -0.062553845
-0.0100254705 -0.10851258 -0.07159464 0.108455755 0.12756202 -0.13825978 -0.07120642 -0.17402764
0.057118014 -0.06263516 -0.118456356 0.09143457 0.028005973 -0.04976559 0.072874635 -0.037401162
0.14639531 0.14361532 -0.14110903 -0.08276193 0.0031997808 0.04686933 0.0039482517 0.08370926
0.049532305 -0.11051409 -0.15931867 -0.11335757 0.044370297 -0.024505293 0.06798589 0.13316305
-0.15097483 0.12107572 -0.07207072 0.10821208 -0.005467797 0.13529682 0.10997715 0.062727116
-0.057944987 -0.12529047 0.11243785 0.03946955 0.10793773 -0.022572063 -0.043204945 0.13042507
-0.15778588 0.111148074 -0.0845333 0.015035139 0.046207085 0.075495966 0.046527345 0.17459261
0.13362241 -0.090800636 -0.15941978 -0.039811917 -0.02257221 -0.095191926 0.003719204 0.057492208
0.038381457 -0.0774052 0.13950495 0.18607993 0.12777945 -0.04884257 -0.036723386 -0.13958603
-0.15996003 0.018340016 -0.039334994 -0.008376282 -0.03022604 -0.005820348 -0.115355 -0.008326867
-0.019959662 0.018618751 -0.0036097383 -0.030885702 -0.082512744 -0.14126498 -0.024543278 0.13773479
0.14472258 0.057258397 -0.101082325 -0.013717162 0.0035875184 -0.051265046 0.14830235 0.05296157
-0.119065225 0.047758467 -0.077154405 0.16802448 -0.045762762 -0.017581863 0.11017587 -0.045761723
-0.07566953 -0.058417443 0.10345274 0.1447269 0.051322002 -0.106540285 0.040535655 -0.06628641
0.03503854 -0.020563262 0.08093749 0.060068555 -0.058830626 -0.06397469 0.11237006 0.010724954
-0.13230947 -0.040699985 0.090331 0.15276827 -0.13482164 0.14320217 -0.16850758 -0.05583197
-0.046848487 0.06670741 -0.08958941 -0.102651745 0.049143404 0.0022157456 0.124938026 0.18039955
0.14382716 -0.09420778 0.08584049 -0.080179274 0.1408382 -0.02467353 0.04637281 0.055276264
0.017967517 -0.009262965 0.23415077 0.07794266 -0.20684996 0.010734541 -0.10924981 -0.0107031865
-0.07810322 0.15210713 0.012204221 -0.010779672 0.030667827 0.0049732076 0.083038054 -0.06156347
0.1388896 0.046977356 0.035183176 0.022477552 0.037655488 -0.022343203 0.0907584 -0.008546661
-0.011497186 0.118587926 -0.13242719 0.01404815 -0.13276306 0.118333265 0.04081081 -0.14937328

net.3.bias f4 [32]
00000000: adb6 fe3d f2c4 b63d 8a74 63bd ef0e ef3d
00000010: ae64 853d 099a 7b3d ce0e 6d3c b254 4bbd
00000020: 1367 63bb a1b7 203e 9f86 113e 8e1d 90bd
00000030: fd6b c63d 66e8 ec3d 6ef9 5d3d 8050 70bd
00000040: ba17 2dbd 7c11 113e b0d2 523d 8266 d73d
00000050: 23f8 20bc c287 8ebc fe4c 7abd 944a c33d
00000060: c607 78bd 61e3 0bbd cb65 a43d 77d6 193d
00000070: 59b2 b8bd e59f d93d 9d95 21bc f621 cd3c
0.124371864 0.08924283 -0.055531062 0.1167277 0.06513344 0.061426196 0.014468862 -0.04964132
-0.0034698888 0.15695049 0.1421151 -0.07036887 0.09688566 0.11567764 0.054192953 -0.05867052
-0.042258956 0.14166826 0.05147046 0.10517599 -0.009824785 -0.017398719 -0.06110858 0.09535709
-0.06055429 -0.034152392 0.08027228 0.037558045 -0.09018392 0.106262006 -0.009862331 0.025040608

net.6.weight f4 [1, 32]
00000000: d182 fa3d f808 5d3e b02c 3f3e 4029 81bd
00000010: ce11 363e 0008 0abe f555 8bbd e405 0fbe
00000020: 7a6f 07be e195 0b3e f182 c4bd 579d 26be
00000030: a248 09be bf9c 453e 0c70 333e 4808 203e
00000040: 8a2a 583e 7d01 89bd 1349 c9bd 7cce 8cbd
00000050: 888a b5bd 7500 eb3d 0dd4 b3bd 4647 2abe
00000060: a710 03be 1540 3d3e a8ac 4a3e cea3 a8bd
00000070: 3d18 2fbe 6ea0 4b3e eb22 1b3e f5be adbd
0.122319825 0.21585453 0.1866939 -0.06306696 0.1778023 -0.13479614 -0.068035044 -0.13967091
-0.13226119 0.13631393 -0.095952876 -0.16270958 -0.13406613 0.19298075 0.17523211 0.15628159
0.21109977 -0.06689737 -0.09828391 -0.06875321 -0.08864313 0.114746965 -0.0878068 -0.16628751
-0.12799321 0.18481477 0.19792426 -0.08234368 -0.1709909 0.19885418 0.15150039 -0.08483688
