trained_scorer/PubMed_epagcl_sage_scorer_model_100_epochs_s4_ex8.pt (torch, 342072 bytes, 5 tensors)

net.0.weight f4 [64, 1287]
000000 60 a9 81 3b 59 69 e6 3c 9a 22 e7 bc 69 66 50 3c
       0.0039569587 0.028126406 -0.028214741 0.012719729
000010 98 2e 47 bd f8 ae 50 3c 07 d4 54 bd fe 53 46 3c
       -0.04862842 0.012737028 -0.051960018 0.012104986
000020 be f8 13 3d 3d 45 07 bc d0 71 3c 3d 6b 7c c1 3b
       0.03612589 -0.008256254 0.046006978 0.0059047244
000030 77 4f 63 bc 00 e6 6a 3c 98 61 fc 3c 58 9b b1 3c
       -0.013873926 0.014337063 0.030808255 0.021680519
000040 b1 93 6f 3b a8 3a f7 38 fa e2 e7 bc 0d ea 8f 3c
       0.0036556537 0.000117888034 -0.028306473 0.017567659
000050 ca b2 a5 bc 2a 45 91 bc 56 3b fb 3c ab 33 65 bc
       -0.020226855 -0.017733175 0.030667942 -0.013989369
000060 4f d3 72 bc d5 a1 7f bc b0 c9 a4 bc 4d 08 0a bd
       -0.014820888 -0.015602549 -0.020115703 -0.033699322
000070 a8 d7 8a 3c ef d9 34 bd cb 0e ed 3c b0 72 ba bc
       0.016948536 -0.04415315 0.028937718 -0.022759765
000080 68 b1 0a 3d 7a 9a 5a 3b e0 2f bc bb 63 65 51 3d
       0.033860594 0.0033356235 -0.005743012 0.05112208
000090 0d 7a da bb 34 b6 ac 3b 39 48 a7 3c 89 1b cb bc
       -0.0066673816 0.0052707437 0.02042018 -0.024793403
0000a0 9e 65 2b bc 15 10 ee 3c d9 68 67 3d ce 65 3b 3d
       -0.010461239 0.029060403 0.056496475 0.045751385
0000b0 a6 8d 1f bc 9d 70 69 bd a5 32 a8 bb 04 86 79 b9
       -0.009738361 -0.056992162 -0.0051329904 -0.00023796415
0000c0 4a a0 a5 3b 39 85 26 bd 75 94 7b bd ca e7 a0 bc
       0.0050545083 -0.040654395 -0.061420877 -0.019641776
0000d0 40 93 f1 bb 3d 56 62 3c cc 50 64 3c c8 f7 13 3d
       -0.00737229 0.013814506 0.013935279 0.036124974
0000e0 2f 03 75 bc b3 11 dd bb 52 f1 a7 ba 85 17 55 bc
       -0.014954372 -0.0067464947 -0.0012813008 -0.013006096
0000f0 d8 37 c0 3c df 40 85 bd b6 77 2d bc 57 a4 59 bd
       0.023464128 -0.06506514 -0.010587623 -0.053135242
000100 eb da 0f 3c 2f c7 6e bc 4c d5 ab 3b 85 48 dc bc
       0.008780221 -0.014573856 0.005243933 -0.026890049
000110 ca 88 62 bd db 84 5b bc c9 f1 13 3d fe 1b 43 3c
       -0.055306233 -0.013398374 0.036119256 0.011908529
000120 6e 2b 3d 3d 7d a2 a9 bc 12 6b 5e bc 8f 7a 96 bc
       0.046183996 -0.020707363 -0.013575332 -0.018368987
000130 b7 77 68 bd d1 57 9e 3c 33 cd 83 3c 59 e7 39 3d
       -0.056754794 0.019328984 0.016089058 0.045386646
000140 3d 85 c0 bc 26 26 ba bc 11 62 25 bc f9 2f 90 bb
       -0.023501033 -0.022723269 -0.010094182 -0.00440025
000150 fb 45 a2 3c 36 e0 65 39 f3 98 8d 3c 6e bf 60 bd
       0.01980876 0.00021922667 0.017284846 -0.05487006
000160 f6 3d ab bc 58 ef 4b 3b 2e f8 c3 3b 66 5b e3 bc
       -0.020903569 0.0031118002 0.005980513 -0.027753543
000170 7e f9 01 3d b8 f1 e3 3c 87 85 67 bd ab 80 dc bc
       0.031732075 0.027825221 -0.056523826 -0.026916822
000180 24 8f 45 3d a8 08 93 3c e4 da 2f 3c 98 54 74 bd
       0.048232213 0.017948464 0.01073334 -0.059650987
000190 5e c8 5d 3c a6 d3 ae 3c d5 71 9f bc 5c a2 ac bc
       0.013536541 0.021341156 -0.019463459 -0.021073513
0001a0 dc 46 1f 3b 7d d1 f0 bb 1c a1 8b bc 51 df 22 3c
       0.002430371 -0.0073491917 -0.017044596 0.009940938
0001b0 aa 39 d9 3a a6 3a 07 bd 1a 60 53 3b 2d 0d c5 bc
       0.0016572971 -0.033014916 0.0032253326 -0.024054134
0001c0 4a f2 ca 3c 8e 31 4b bd 77 64 39 bc 97 96 ae 3b
       0.024773736 -0.049607806 -0.011315457 0.0053280103
0001d0 14 67 f0 3c 2b f3 50 bd 02 db 8f 3c 41 3f 8b 3b
       0.029346026 -0.051013153 0.017560486 0.004249484
0001e0 7f 0f 02 bd 7e 69 1e bd db 8b a2 bc ac df 29 bd
       -0.03175306 -0.038674824 -0.019842079 -0.041473076
0001f0 69 fa 06 3b 12 52 2e bd 9c 84 8f 3c be d3 8e bc
       0.0020596033 -0.042558737 0.017519288 -0.01743495
000200 af aa f3 bb 3f 70 e9 3c 9e 63 36 3c 5f 5a d2 3b
       -0.0074361186 0.028495906 0.011132149 0.0064194645
000210 0d 79 d1 3b f1 d8 52 bb dd 3b 77 3c dc 57 80 bb
       0.006392604 -0.0032172764 0.015089956 -0.0039167237
000220 1c ac 66 bc 97 ec 21 bd 5c c0 3c bb 92 57 a8 bc
       -0.01407912 -0.03953227 -0.0028801179 -0.02054957
000230 cd be 0d bd 59 11 7f bc ea 16 e5 3c 90 8c 13 bd
       -0.03460579 -0.015568101 0.027965028 -0.036022723
000240 51 e3 4d 3d 97 86 c7 ba 5b 51 74 3d 91 ab 69 3d
       0.050265614 -0.0015222606 0.0596479 0.057048384
000250 4c 19 bf 3c 81 eb c9 bb b9 1c cd 3c 14 68 d8 bc
       0.023327492 -0.0061621075 0.02503811 -0.026416816
000260 31 9c 0c 3d c6 d1 35 bc 78 61 18 3d eb 7c 74 3b
       0.034328643 -0.011097377 0.03720233 0.0037305902
000270 e8 9c ed 3b 8d dc 06 bd 9f 69 59 3c 49 36 ed bc
       0.0072513707 -0.032925177 0.013269811 -0.02895655
000280 fd a6 45 3d ba 3e 5b bc ea 45 af bb fa 8f 78 bd
       0.048254956 -0.013381654 -0.0053489106 -0.06068418
000290 e5 49 25 3d f4 cc 59 3a 0c f3 0f 3c 15 65 0e 3b
       0.040353674 0.00083084335 0.008785974 0.002172773
0002a0 b1 0c 9f 3b ad f9 eb 3b 32 04 21 bc be cf af bc
       0.004853808 0.0072013945 -0.00982766 -0.021461364
0002b0 51 a3 06 3d 20 a1 d0 bc 03 21 d8 bb 04 c7 1a 3c
       0.032870594 -0.025467455 -0.006595732 0.009446863
0002c0 31 7c 8f 3a 49 be 3e 3c 51 78 d7 bc ea 29 ab 3b
       0.0010947046 0.011642047 -0.026302489 0.0052235024
0002d0 93 5e f1 bc b1 97 51 3c 35 90 cb 3c 13 3f a9 bc
       -0.029464042 0.012792514 0.024849037 -0.020659959
0002e0 48 c7 8e b9 84 48 17 3d a4 03 42 3c 23 95 56 bd
       -0.00027232827 0.03693439 0.011841688 -0.05238832
0002f0 04 2a 96 bc 56 3e a7 bb 90 92 3d bc 17 50 e0 bc
       -0.018330581 -0.0051038666 -0.011570588 -0.02738194
000300 60 15 60 3c 6a 07 30 3b 0e 5a 13 bd bb e2 eb 3c
       0.013676971 0.0026859888 -0.035974555 0.028794637
000310 ef c7 40 3a ef c7 ae bc a0 11 b3 3c cf cb 0b bd
       0.0007354011 -0.02133557 0.02185899 -0.034129914
000320 4d 5b cd bc ab 72 34 bd fa 9a c6 3c 15 27 30 bc
       -0.02506795 -0.04405467 0.02424382 -0.010751505
000330 68 c9 11 bc 00 da 79 bb ed f8 12 bb e2 89 0a bc
       -0.008898117 -0.0038124323 -0.0022426203 -0.008455725
000340 15 61 01 3c 7e c2 54 3d 63 a2 30 3b 66 81 19 3c
       0.007896681 0.051943295 0.0026952259 0.00936923
000350 df 93 e4 bc 3b 90 e5 bc c4 b3 bd 3c 53 6d 12 3d
       -0.027902542 -0.028022876 0.023157008 0.03574879
000360 90 66 e3 ba 5f 09 be 3c b6 ed 28 3c 29 cf d6 bc
       -0.0017349292 0.023197828 0.010310581 -0.026221829
000370 e5 29 b0 bc 51 0a 31 3d 83 7f d4 ba 9c ad 42 bd
       -0.021504352 0.04322273 -0.0016212318 -0.047528848
000380 c8 60 ba bc 6e f7 e8 bb 7d b2 c2 3b 93 e5 d8 3b
       -0.022751227 -0.007109574 0.0059416876 0.0066191643
000390 e5 1d fc bc 49 13 5f bd 7b 95 bb bc 22 d6 8c 3c
       -0.030775974 -0.05446175 -0.022898426 0.01719195
0003a0 9d b3 4c 3d c6 f0 39 3d 7c 80 cb bc d0 1d 00 3b
       0.04997598 0.045395635 -0.02484154 0.001954902
0003b0 e8 7e ed 3c 64 85 e7 3b 90 e5 b7 bc 68 f9 38 bc
       0.028991178 0.007065462 -0.022448331 -0.011289932
0003c0 44 89 23 3c fb fc a2 3c b3 76 60 3b ee 72 a8 bc
       0.009981457 0.019896021 0.0034250438 -0.020562615
0003d0 89 bd e3 bc 5e b5 d5 bc ff 79 7c bc 4d 7c 6f 3c
       -0.027800338 -0.02608746 -0.0154099455 0.014617038
0003e0 72 68 7a bc 52 e8 e5 3c a5 53 5b 3c 51 9e 03 bd
       -0.015283691 0.02806488 0.013386642 -0.032133404
0003f0 97 19 4d 3c b4 45 ef bc 9c cd 2d 3c 94 55 8b bd
       0.012518308 -0.029208042 0.010608103 -0.06803432

net.0.bias f4 [64]
000000 ac 05 2f bc 66 91 07 3d f9 69 f7 bc 54 42 0a bd
       -0.010682505 0.033097647 -0.030201899 -0.03375466
000010 84 39 27 3d a4 7f 6a 3d bc dc 8b bc 1f 2f 6b 3d
       0.040826336 0.057250634 -0.017073028 0.057417985
000020 f8 82 b8 3d d1 21 85 bc 07 61 bc bc ab 18 a1 3a
       0.09009355 -0.016251476 -0.022995485 0.0012290677
000030 a7 f2 5e 3d 8e 8a 3f bd 91 5e c3 3d f5 df 38 bd
       0.05443063 -0.046762995 0.095395215 -0.045135457
000040 2c 1a a7 3d 66 03 62 bd 4c 23 77 3d 8f db 30 3d
       0.08159289 -0.055179022 0.060336396 0.043178137
000050 98 ec d9 bc f0 0f d6 3c 63 ca 4d bd 03 d3 4c bd
       -0.026602075 0.026130646 -0.05024184 -0.050005924
000060 d3 51 d4 bc 2f 75 f7 bb 0f ed 99 bc aa b6 95 3d
       -0.025917923 -0.007551811 -0.018789796 0.07310231
000070 e7 bf 20 bd 8b 02 1c 3d 67 a5 59 3b a0 26 35 bc
       -0.039245512 0.038088363 0.003321016 -0.011056572
000080 b9 4f 60 3d 9f 5a 9c 3d 07 5b 16 bd 28 15 4c bd
       0.05476353 0.07634472 -0.036707904 -0.049824864
000090 71 b4 46 bb 0f b8 ba 3b 11 76 2b 3c b3 dc c3 3d
       -0.0030319954 0.005698211 0.010465161 0.095635794
0000a0 56 df cf 3d ac 7a 6a bd 11 bd 4a bd d1 16 2f bd
       0.1015002 -0.057245895 -0.049496714 -0.04274637
0000b0 2c 9a 77 3d d2 70 91 bd 5e ae 6f 3d 9b 8d af 3c
       0.060449764 -0.07101597 0.0585159 0.021429827
0000c0 59 97 42 bd 68 ff ab 3d 25 c4 dd bc b2 24 97 bc
       -0.047507618 0.08398324 -0.027071068 -0.018450115
0000d0 96 be f4 bc c1 de 12 3d 1b 71 43 3d b3 be 85 bc
       -0.029876035 0.035856966 0.047715288 -0.016326284
0000e0 5e ad 3c bc d4 74 83 bd 83 0b e7 3d 1e 23 44 3b
       -0.011515943 -0.064187676 0.112814926 0.0029928158
0000f0 49 fe 67 3d 5c e3 1b bd 18 37 10 bc 64 75 ae 3d
       0.05663899 -0.038058624 -0.008802198 0.08518484

net.3.weight f4 [32, 64]
000000 28 0f d8 bc 29 eb ae 3d 33 24 6e bd 15 eb 1c be
       -0.026374415 0.08540947 -0.05813999 -0.15324052
000010 3c 9c 22 3d 15 45 d3 3d 86 3b ea bc 68 7d 17 3e
       0.039699778 0.10315911 -0.028592836 0.14793932
000020 f2 4b 36 3e b1 d4 8f 3d f4 bd b4 3d 8c bc a7 bc
       0.17802408 0.070229895 0.08825293 -0.020475648
000030 1e 94 29 3d a2 59 c7 bd aa 67 d2 3d d2 ac c0 ba
       0.04140102 -0.09733893 0.102736786 -0.0014699942
000040 5a 85 42 bd 04 25 c2 bd e6 7a 2c 3e b9 f1 66 3d
       -0.047490455 -0.094797164 0.16843757 0.05638287
000050 b1 ef af bd 58 5a da bd 9e d7 e1 bd e4 a3 cf 3c
       -0.085906394 -0.10661763 -0.11027454 0.025346704
000060 88 9b 56 3d 1d ef e0 3b 01 a9 a3 bd 17 61 89 bd
       0.05239442 0.006864442 -0.07991219 -0.067079715
000070 8b 0e 78 3d ea 73 51 bd 6f db cb bb c8 8b 1e 3c
       0.060560744 -0.051135935 -0.006221227 0.009676881
000080 0a 34 4d 3e 83 d5 9c 3c c6 ac 86 bd 80 17 be bd
       0.20039383 0.01914478 -0.06575923 -0.09281826
000090 f7 e7 ee bc 6f 46 ba bd 3f 3e 6f 3d 73 08 e6 3d
       -0.029163344 -0.090954654 0.058408972 0.1123208
0000a0 9e 49 2a 3e 77 ff f3 bd a9 ec d9 3c 28 63 46 be
       0.16629645 -0.119139604 0.026602106 -0.19373763
0000b0 fc 97 49 3b cb 5c 40 bd d8 13 36 bc 13 3a 20 3e
       0.0030760756 -0.046963494 -0.01111313 0.15647154
0000c0 ef d0 41 be 11 5e 2a 3e f4 81 8c 3d 76 87 f9 bc
       -0.18927358 0.16637446 0.06860724 -0.0304601
0000d0 98 81 fd 3c 2c ab 0f bd 8a a2 c9 3d 07 08 9e bd
       0.030945584 -0.03507535 0.09845455 -0.07716375
0000e0 5b 56 d0 3c de 49 88 bd 36 3d a1 3d 19 0d 8e bd
       0.025431802 -0.06654714 0.07873003 -0.06936092
0000f0 e3 6f 02 3a 10 18 2a bd ad 4c af 3c 58 70 45 3e
       0.0004975779 -0.041526854 0.021398867 0.19281137
000100 98 62 e9 bc 4e e8 ef 3d af 52 f2 bc 98 7a fd bd
       -0.028489396 0.117142305 -0.029580442 -0.123768985
000110 6a 85 20 3e e3 f5 c0 3d dd c1 23 3d 79 b4 66 bc
       0.15675893 0.09421899 0.039979804 -0.014081114
000120 47 6f ae 3d 12 3a 8a 3c c5 ca 92 3d ed 53 c1 3d
       0.08517318 0.016873393 0.071675815 0.09439836
000130 7f f6 c3 3d cb a4 1e be d2 1b e2 3d cd e4 db bd
       0.095685 -0.15492551 0.110404626 -0.10737
000140 ce 6e f3 bc c2 24 d2 bd d0 f7 a1 bd 72 bc bf 3d
       -0.029715922 -0.10260917 -0.079085946 0.09362115
000150 45 bc dd 3d c6 bc 14 be 7b 8a 97 bd ec 11 2f be
       0.10826925 -0.14525136 -0.0739946 -0.1709668
000160 13 43 66 3d 18 8c 90 bd 38 bb d4 bd d6 52 ba 3d
       0.05621631 -0.07057971 -0.10387272 0.09097831
000170 df 84 b0 3c 6b 26 83 bd 5b ef b1 3d a5 1b 05 bd
       0.021547733 -0.06403812 0.086882316 -0.032497067
000180 29 6d 18 3e 7e 7f 1c 3e 62 34 19 be 36 73 a7 bd
       0.14885391 0.1528301 -0.14961389 -0.081762716
000190 f5 27 d4 bc 77 44 1f 3d ce b9 6d ba 95 85 a1 3d
       -0.02589796 0.038883653 -0.00090685196 0.07886807
0001a0 57 f5 1d 3d 05 73 bc bd 3d c5 23 be 1b 4e f5 bd
       0.038564052 -0.09201626 -0.15993209 -0.11977788
0001b0 17 de 33 3d 79 5a 63 3c cf b8 84 3d e0 c2 03 3e
       0.043912973 0.013876551 0.06480562 0.12867308
0001c0 da 81 1c be d7 5f d5 3d 97 24 82 bd f4 a4 a6 3d
       -0.1528391 0.104186706 -0.06354635 0.08136931
0001d0 0e 18 0f bc d2 d2 05 3e c9 87 de 3d b7 17 5c 3d
       -0.008733762 0.13068703 0.10865743 0.053733554
0001e0 49 25 7c bd a9 89 f0 bd cb c0 df 3d 62 f3 38 3d
       -0.061558995 -0.117450066 0.10925444 0.045153983
0001f0 55 7c fc 3d 29 69 bf 3c f1 e6 de bc e0 59 07 3e
       0.12328402 0.023365574 -0.02720973 0.13217878
000200 20 7c 25 be fc ec e6 3d aa 73 b3 bd 77 39 7c 3c
       -0.16160631 0.1127567 -0.087622955 0.01539456
000210 57 08 4c 3d 39 c7 b6 3d 5f 58 40 3d eb ab 14 3e
       0.04981264 0.089247175 0.046959277 0.14518707
000220 b3 64 18 3e 51 15 b0 bd 5e 22 2a be ad 37 b5 bc
       0.14882164 -0.08597816 -0.16614673 -0.022121275
000230 68 1e a9 bc d1 ab ee bd ad b1 88 3b 70 db 1d 3c
       -0.020644382 -0.11653865 0.004171571 0.0096348375
000240 48 37 07 3d 10 f1 97 bd b3 30 11 3e bf 0d 1f 3e
       0.033011705 -0.07419026 0.14178734 0.15532587
000250 f4 30 97 3d 47 81 85 bd 13 9d 3f bd d9 af 04 be
       0.07382384 -0.06518798 -0.046780657 -0.12957706
000260 ab 80 24 be 4a 58 46 3b f6 52 0a bd d8 9a 75 bb
       -0.16064708 0.0030265027 -0.033770524 -0.0037476327
000270 b1 0b 13 bd 6d 0b fc bc 06 c9 d6 bd 6b 04 0a bc
       -0.03589982 -0.030767167 -0.10487561 -0.008423905
000280 ce ed 18 bc a2 10 cb 3c 33 a3 29 bb 50 ca 13 bd
       -0.009334041 0.024788205 -0.0025884628 -0.036081612
000290 2f 9c dd bd 2c 3f 0a be c5 d2 d4 bc 55 f8 0c 3e
       -0.10820805 -0.1350066 -0.025979409 0.13766606
0002a0 56 af 14 3e 1b c3 8e 3d f6 e5 d0 bd 35 83 e1 bc
       0.1452001 0.06970807 -0.102001116 -0.027528385
0002b0 7f c3 b7 3c d2 b8 6b bc 3e 21 17 3e 04 2f 75 3d
       0.022432087 -0.014387326 0.14758775 0.05985929
0002c0 60 71 00 be c6 65 55 3d 0b af c5 bd cf d2 00 3e
       -0.12543249 0.05209901 -0.096525274 0.12580417
0002d0 c4 5f 3a bd da 98 41 bc 99 0d c5 3d 16 ed 59 bd
       -0.045501485 -0.011816228 0.09621734 -0.05320462
0002e0 6b 67 a6 bd 97 05 86 bd 92 b3 01 3e f3 af 15 3e
       -0.08125194 -0.06544035 0.12666157 0.146179
0002f0 2b 56 a0 3d 68 1c cb bd 35 b7 35 3d 62 90 83 bd
       0.07828935 -0.099175274 0.044364173 -0.06424023
000300 55 3e 7c 3d 11 78 c5 bc 6f 34 9c 3d 9e de 73 3d
       0.061582882 -0.024105104 0.076271884 0.059538476
000310 fd 68 86 bd 7c c0 95 bd 9c 7f ed 3d 30 8e 8e 3c
       -0.06562994 -0.07312104 0.11596605 0.017401785
000320 ec 4c 10 be 12 41 3b bd 75 78 c5 3d 7b 2a de 3d
       -0.14091843 -0.045716353 0.09642116 0.10847946
000330 d2 5c 0d be c5 f7 1c 3e 36 18 40 be 89 07 4c 3d
       -0.1380494 0.15328892 -0.18759236 0.049811874
000340 d1 16 3a bd 64 7e 86 3d e3 62 d9 bd 29 9a ad bd
       -0.045431916 0.06567076 -0.10614564 -0.08476669
000350 93 50 59 3d 1c ad 7b bc f4 f5 fc 3d 6c 32 31 3e
       0.053055357 -0.015361097 0.12351599 0.1730439
000360 54 9f 15 3e 00 aa d3 bd 5a 23 aa 3d 89 d1 a4 bd
       0.1461156 -0.10335159 0.08307524 -0.08047778
000370 7b 1d 19 3e 22 25 4a bc b3 e1 cf 3c 4e 4e 4e 3d
       0.14952652 -0.012337955 0.025376176 0.050367646
000380 48 a7 41 3b 19 0c 44 bc 04 e8 63 3e 77 f2 b3 3d
       0.002954917 -0.011965775 0.22256476 0.08786481
000390 1f aa 16 be 52 73 b6 3c 31 8b cd bd c6 64 b3 bb
       -0.14713334 0.022271786 -0.10036314 -0.0054746596
0003a0 43 06 97 bd 6c e1 09 3e 65 90 17 3c 27 46 1f bc
       -0.07374241 0.13464898 0.009250735 -0.0097213155
0003b0 da eb bd 3c fe 62 15 bd 5b 26 b4 3d fa e9 6d bd
       0.023183752 -0.03647136 0.08796378 -0.058084466
0003c0 0a ec 0f 3e 5e bd 09 3d 6d 3e 88 3d c7 d1 04 3c
       0.14054886 0.03362786 0.06652532 0.008106655
0003d0 22 ac e3 3b a5 ad a3 bc b4 32 b7 3d e4 c6 5f bc
       0.00694801 -0.019980261 0.08945218 -0.013658259
0003e0 2f 7d 68 bc 9b 36 e5 3d f4 73 19 be 71 f8 7a 3c
       -0.014190002 0.11192056 -0.14985639 0.015318022
0003f0 4a ae 13 be 3c a7 c6 3d 31 1b 48 3d 9d be 23 be
       -0.14421955 0.09699866 0.048854057 -0.15990682

net.3.bias f4 [32]
000000 4f 9f fc 3d 9c fc b0 3d db 00 57 bd 47 41 ef 3d
       0.12335073 0.086419314 -0.05249105 0.116823725
000010 62 54 5c 3d d0 59 7b 3d b6 35 67 3c 32 ea 69 bd
       0.05379141 0.06136495 0.014111927 -0.05710811
000020 88 92 5c bc c3 bb 1d 3e b1 05 04 3e fd d1 99 bd
       -0.01346267 0.15403657 0.12892796 -0.07510755
000030 1a cb d6 3d 4c 60 f1 3d 13 a6 4a 3d 51 17 6f bd
       0.10487957 0.11785945 0.049474787 -0.058371846
000040 dc 91 5c bd 08 40 1b 3e 16 9d 06 3d b1 2f c2 3d
       -0.05385004 0.15161145 0.032864653 0.09481753
000050 35 16 03 bd 5e 15 e9 bc 0d 9d 77 bd 99 05 c2 3d
       -0.0320036 -0.028452571 -0.06045251 0.09473724
000060 59 26 57 bd ac 16 43 bd 8c 76 a3 3d ac dc e7 3c
       -0.052526806 -0.047629043 0.079815954 0.028303467
000070 e8 2c bf bd 8e 76 e4 3d 64 e2 2a bc eb a6 a2 3c
       -0.09334737 0.11155425 -0.010429952 0.019854983

net.6.weight f4 [1, 32]
000000 49 64 e5 3d 2a 78 59 3e 49 a1 40 3e 95 67 74 bd
       0.112007685 0.21237245 0.18811525 -0.059669096
000010 0f d2 36 3e be c7 03 be f5 c6 85 bd e9 46 10 be
       0.17853568 -0.12869164 -0.06532089 -0.1408955
000020 0f b1 ff bd cf 90 03 3e 6b 73 be bd 00 88 20 be
       -0.12484943 0.12848209 -0.09299358 -0.1567688
000030 8b 77 09 be 3e 36 3c 3e 97 4e 36 3e c6 80 20 3e
       -0.13424508 0.18380067 0.17803417 0.15674123
000040 56 7b 54 3e e1 df 95 bd d0 ea c4 bd 40 14 8c bd
       0.20750174 -0.07318092 -0.096150994 -0.068398
000050 29 35 76 bd 0e aa cc 3d 98 ae 94 bd ea 93 39 be
       -0.06010929 0.09993373 -0.072598636 -0.18122831
000060 f9 68 09 be 8d 33 34 3e 46 b6 43 3e 12 34 a1 bd
       -0.1341895 0.1759779 0.191125 -0.0787126
000070 10 be 35 be dd 8c 52 3e 64 3b 11 3e 6e d5 b9 bd
       -0.17748284 0.20561548 0.14182812 -0.090739116
